{"class_name": "Model", "keras_version": "2.0.6", "config": {"layers": [{"class_name": "InputLayer", "config": {"dtype": "float32", "batch_input_shape": [null, 321, 321, 3], "name": "input_1", "sparse": false}, "inbound_nodes": [], "name": "input_1"}, {"class_name": "Cropping2D", "config": {"cropping": [[11, 11], [11, 11]], "trainable": true, "name": "cropping2d_1", "data_format": "channels_last"}, "inbound_nodes": [[["input_1", 0, 0, {}]]], "name": "cropping2d_1"}, {"class_name": "Conv2D", "config": {"kernel_constraint": null, "kernel_initializer": {"class_name": "VarianceScaling", "config": {"distribution": "uniform", "scale": 1.0, "seed": null, "mode": "fan_avg"}}, "name": "conv1", "bias_regularizer": null, "bias_constraint": null, "activation": "linear", "trainable": true, "data_format": "channels_last", "padding": "valid", "strides": [2, 2], "dilation_rate": [1, 1], "kernel_regularizer": null, "filters": 32, "bias_initializer": {"class_name": "Zeros", "config": {}}, "use_bias": true, "activity_regularizer": null, "kernel_size": [3, 3]}, "inbound_nodes": [[["cropping2d_1", 0, 0, {}]]], "name": "conv1"}, {"class_name": "BatchNormalization", "config": {"beta_constraint": null, "gamma_initializer": {"class_name": "Ones", "config": {}}, "moving_mean_initializer": {"class_name": "Zeros", "config": {}}, "name": "bn1", "epsilon": 0.001, "trainable": true, "moving_variance_initializer": {"class_name": "Ones", "config": {}}, "beta_initializer": {"class_name": "Zeros", "config": {}}, "scale": true, "axis": 3, "gamma_constraint": null, "gamma_regularizer": null, "beta_regularizer": null, "momentum": 0.99, "center": true}, "inbound_nodes": [[["conv1", 0, 0, {}]]], "name": "bn1"}, {"class_name": "Activation", "config": {"activation": "relu", "trainable": true, "name": "arelu1"}, "inbound_nodes": [[["bn1", 0, 0, {}]]], "name": "arelu1"}, {"class_name": "Conv2D", "config": {"kernel_constraint": null, "kernel_initializer": {"class_name": "VarianceScaling", "config": {"distribution": "uniform", "scale": 1.0, "seed": null, "mode": "fan_avg"}}, "name": "conv2", "bias_regularizer": null, "bias_constraint": null, "activation": "linear", "trainable": true, "data_format": "channels_last", "padding": "valid", "strides": [1, 1], "dilation_rate": [1, 1], "kernel_regularizer": null, "filters": 32, "bias_initializer": {"class_name": "Zeros", "config": {}}, "use_bias": true, "activity_regularizer": null, "kernel_size": [3, 3]}, "inbound_nodes": [[["arelu1", 0, 0, {}]]], "name": "conv2"}, {"class_name": "BatchNormalization", "config": {"beta_constraint": null, "gamma_initializer": {"class_name": "Ones", "config": {}}, "moving_mean_initializer": {"class_name": "Zeros", "config": {}}, "name": "bn2", "epsilon": 0.001, "trainable": true, "moving_variance_initializer": {"class_name": "Ones", "config": {}}, "beta_initializer": {"class_name": "Zeros", "config": {}}, "scale": true, "axis": 3, "gamma_constraint": null, "gamma_regularizer": null, "beta_regularizer": null, "momentum": 0.99, "center": true}, "inbound_nodes": [[["conv2", 0, 0, {}]]], "name": "bn2"}, {"class_name": "Activation", "config": {"activation": "relu", "trainable": true, "name": "arelu2"}, "inbound_nodes": [[["bn2", 0, 0, {}]]], "name": "arelu2"}, {"class_name": "Conv2D", "config": {"kernel_constraint": null, "kernel_initializer": {"class_name": "VarianceScaling", "config": {"distribution": "uniform", "scale": 1.0, "seed": null, "mode": "fan_avg"}}, "name": "conv3", "bias_regularizer": null, "bias_constraint": null, "activation": "linear", "trainable": true, "data_format": "channels_last", "padding": "same", "strides": [1, 1], "dilation_rate": [1, 1], "kernel_regularizer": null, "filters": 64, "bias_initializer": {"class_name": "Zeros", "config": {}}, "use_bias": true, "activity_regularizer": null, "kernel_size": [3, 3]}, "inbound_nodes": [[["arelu2", 0, 0, {}]]], "name": "conv3"}, {"class_name": "BatchNormalization", "config": {"beta_constraint": null, "gamma_initializer": {"class_name": "Ones", "config": {}}, "moving_mean_initializer": {"class_name": "Zeros", "config": {}}, "name": "bn3", "epsilon": 0.001, "trainable": true, "moving_variance_initializer": {"class_name": "Ones", "config": {}}, "beta_initializer": {"class_name": "Zeros", "config": {}}, "scale": true, "axis": 3, "gamma_constraint": null, "gamma_regularizer": null, "beta_regularizer": null, "momentum": 0.99, "center": true}, "inbound_nodes": [[["conv3", 0, 0, {}]]], "name": "bn3"}, {"class_name": "Activation", "config": {"activation": "relu", "trainable": true, "name": "arelu3"}, "inbound_nodes": [[["bn3", 0, 0, {}]]], "name": "arelu3"}, {"class_name": "MaxPooling2D", "config": {"name": "mp1", "trainable": true, "data_format": "channels_last", "pool_size": [3, 3], "padding": "valid", "strides": [2, 2]}, "inbound_nodes": [[["arelu3", 0, 0, {}]]], "name": "mp1"}, {"class_name": "Conv2D", "config": {"kernel_constraint": null, "kernel_initializer": {"class_name": "VarianceScaling", "config": {"distribution": "uniform", "scale": 1.0, "seed": null, "mode": "fan_avg"}}, "name": "conv4", "bias_regularizer": null, "bias_constraint": null, "activation": "linear", "trainable": true, "data_format": "channels_last", "padding": "valid", "strides": [1, 1], "dilation_rate": [1, 1], "kernel_regularizer": null, "filters": 80, "bias_initializer": {"class_name": "Zeros", "config": {}}, "use_bias": true, "activity_regularizer": null, "kernel_size": [1, 1]}, "inbound_nodes": [[["mp1", 0, 0, {}]]], "name": "conv4"}, {"class_name": "BatchNormalization", "config": {"beta_constraint": null, "gamma_initializer": {"class_name": "Ones", "config": {}}, "moving_mean_initializer": {"class_name": "Zeros", "config": {}}, "name": "bn4", "epsilon": 0.001, "trainable": true, "moving_variance_initializer": {"class_name": "Ones", "config": {}}, "beta_initializer": {"class_name": "Zeros", "config": {}}, "scale": true, "axis": 3, "gamma_constraint": null, "gamma_regularizer": null, "beta_regularizer": null, "momentum": 0.99, "center": true}, "inbound_nodes": [[["conv4", 0, 0, {}]]], "name": "bn4"}, {"class_name": "Activation", "config": {"activation": "relu", "trainable": true, "name": "arelu4"}, "inbound_nodes": [[["bn4", 0, 0, {}]]], "name": "arelu4"}, {"class_name": "Conv2D", "config": {"kernel_constraint": null, "kernel_initializer": {"class_name": "VarianceScaling", "config": {"distribution": "uniform", "scale": 1.0, "seed": null, "mode": "fan_avg"}}, "name": "conv5", "bias_regularizer": null, "bias_constraint": null, "activation": "linear", "trainable": true, "data_format": "channels_last", "padding": "valid", "strides": [1, 1], "dilation_rate": [1, 1], "kernel_regularizer": null, "filters": 192, "bias_initializer": {"class_name": "Zeros", "config": {}}, "use_bias": true, "activity_regularizer": null, "kernel_size": [3, 3]}, "inbound_nodes": [[["arelu4", 0, 0, {}]]], "name": "conv5"}, {"class_name": "BatchNormalization", "config": {"beta_constraint": null, "gamma_initializer": {"class_name": "Ones", "config": {}}, "moving_mean_initializer": {"class_name": "Zeros", "config": {}}, "name": "bn5", "epsilon": 0.001, "trainable": true, "moving_variance_initializer": {"class_name": "Ones", "config": {}}, "beta_initializer": {"class_name": "Zeros", "config": {}}, "scale": true, "axis": 3, "gamma_constraint": null, "gamma_regularizer": null, "beta_regularizer": null, "momentum": 0.99, "center": true}, "inbound_nodes": [[["conv5", 0, 0, {}]]], "name": "bn5"}, {"class_name": "Activation", "config": {"activation": "relu", "trainable": true, "name": "arelu5"}, "inbound_nodes": [[["bn5", 0, 0, {}]]], "name": "arelu5"}, {"class_name": "MaxPooling2D", "config": {"name": "mp2", "trainable": true, "data_format": "channels_last", "pool_size": [3, 3], "padding": "valid", "strides": [2, 2]}, "inbound_nodes": [[["arelu5", 0, 0, {}]]], "name": "mp2"}, {"class_name": "Conv2D", "config": {"kernel_constraint": null, "kernel_initializer": {"class_name": "VarianceScaling", "config": {"distribution": "uniform", "scale": 1.0, "seed": null, "mode": "fan_avg"}}, "name": "mixed_5b/branch_2_1", "bias_regularizer": null, "bias_constraint": null, "activation": "linear", "trainable": true, "data_format": "channels_last", "padding": "same", "strides": [1, 1], "dilation_rate": [1, 1], "kernel_regularizer": null, "filters": 64, "bias_initializer": {"class_name": "Zeros", "config": {}}, "use_bias": true, "activity_regularizer": null, "kernel_size": [1, 1]}, "inbound_nodes": [[["mp2", 0, 0, {}]]], "name": "mixed_5b/branch_2_1"}, {"class_name": "BatchNormalization", "config": {"beta_constraint": null, "gamma_initializer": {"class_name": "Ones", "config": {}}, "moving_mean_initializer": {"class_name": "Zeros", "config": {}}, "name": "mixed_5b/bn.branch_2.1", "epsilon": 0.001, "trainable": true, "moving_variance_initializer": {"class_name": "Ones", "config": {}}, "beta_initializer": {"class_name": "Zeros", "config": {}}, "scale": true, "axis": 3, "gamma_constraint": null, "gamma_regularizer": null, "beta_regularizer": null, "momentum": 0.99, "center": true}, "inbound_nodes": [[["mixed_5b/branch_2_1", 0, 0, {}]]], "name": "mixed_5b/bn.branch_2.1"}, {"class_name": "Activation", "config": {"activation": "relu", "trainable": true, "name": "arelu9"}, "inbound_nodes": [[["mixed_5b/bn.branch_2.1", 0, 0, {}]]], "name": "arelu9"}, {"class_name": "Conv2D", "config": {"kernel_constraint": null, "kernel_initializer": {"class_name": "VarianceScaling", "config": {"distribution": "uniform", "scale": 1.0, "seed": null, "mode": "fan_avg"}}, "name": "mixed_5b/branch_1_1", "bias_regularizer": null, "bias_constraint": null, "activation": "linear", "trainable": true, "data_format": "channels_last", "padding": "same", "strides": [1, 1], "dilation_rate": [1, 1], "kernel_regularizer": null, "filters": 48, "bias_initializer": {"class_name": "Zeros", "config": {}}, "use_bias": true, "activity_regularizer": null, "kernel_size": [1, 1]}, "inbound_nodes": [[["mp2", 0, 0, {}]]], "name": "mixed_5b/branch_1_1"}, {"class_name": "Conv2D", "config": {"kernel_constraint": null, "kernel_initializer": {"class_name": "VarianceScaling", "config": {"distribution": "uniform", "scale": 1.0, "seed": null, "mode": "fan_avg"}}, "name": "mixed_5b/branch_2_2", "bias_regularizer": null, "bias_constraint": null, "activation": "linear", "trainable": true, "data_format": "channels_last", "padding": "same", "strides": [1, 1], "dilation_rate": [1, 1], "kernel_regularizer": null, "filters": 96, "bias_initializer": {"class_name": "Zeros", "config": {}}, "use_bias": true, "activity_regularizer": null, "kernel_size": [3, 3]}, "inbound_nodes": [[["arelu9", 0, 0, {}]]], "name": "mixed_5b/branch_2_2"}, {"class_name": "BatchNormalization", "config": {"beta_constraint": null, "gamma_initializer": {"class_name": "Ones", "config": {}}, "moving_mean_initializer": {"class_name": "Zeros", "config": {}}, "name": "mixed_5b/bn.branch_1.1", "epsilon": 0.001, "trainable": true, "moving_variance_initializer": {"class_name": "Ones", "config": {}}, "beta_initializer": {"class_name": "Zeros", "config": {}}, "scale": true, "axis": 3, "gamma_constraint": null, "gamma_regularizer": null, "beta_regularizer": null, "momentum": 0.99, "center": true}, "inbound_nodes": [[["mixed_5b/branch_1_1", 0, 0, {}]]], "name": "mixed_5b/bn.branch_1.1"}, {"class_name": "BatchNormalization", "config": {"beta_constraint": null, "gamma_initializer": {"class_name": "Ones", "config": {}}, "moving_mean_initializer": {"class_name": "Zeros", "config": {}}, "name": "mixed_5b/bn.branch_2.2", "epsilon": 0.001, "trainable": true, "moving_variance_initializer": {"class_name": "Ones", "config": {}}, "beta_initializer": {"class_name": "Zeros", "config": {}}, "scale": true, "axis": 3, "gamma_constraint": null, "gamma_regularizer": null, "beta_regularizer": null, "momentum": 0.99, "center": true}, "inbound_nodes": [[["mixed_5b/branch_2_2", 0, 0, {}]]], "name": "mixed_5b/bn.branch_2.2"}, {"class_name": "Activation", "config": {"activation": "relu", "trainable": true, "name": "arelu7"}, "inbound_nodes": [[["mixed_5b/bn.branch_1.1", 0, 0, {}]]], "name": "arelu7"}, {"class_name": "Activation", "config": {"activation": "relu", "trainable": true, "name": "arelu10"}, "inbound_nodes": [[["mixed_5b/bn.branch_2.2", 0, 0, {}]]], "name": "arelu10"}, {"class_name": "AveragePooling2D", "config": {"name": "ap1", "trainable": true, "data_format": "channels_last", "pool_size": [3, 3], "padding": "same", "strides": [1, 1]}, "inbound_nodes": [[["mp2", 0, 0, {}]]], "name": "ap1"}, {"class_name": "Conv2D", "config": {"kernel_constraint": null, "kernel_initializer": {"class_name": "VarianceScaling", "config": {"distribution": "uniform", "scale": 1.0, "seed": null, "mode": "fan_avg"}}, "name": "mixed_5b/branch_0", "bias_regularizer": null, "bias_constraint": null, "activation": "linear", "trainable": true, "data_format": "channels_last", "padding": "same", "strides": [1, 1], "dilation_rate": [1, 1], "kernel_regularizer": null, "filters": 96, "bias_initializer": {"class_name": "Zeros", "config": {}}, "use_bias": true, "activity_regularizer": null, "kernel_size": [1, 1]}, "inbound_nodes": [[["mp2", 0, 0, {}]]], "name": "mixed_5b/branch_0"}, {"class_name": "Conv2D", "config": {"kernel_constraint": null, "kernel_initializer": {"class_name": "VarianceScaling", "config": {"distribution": "uniform", "scale": 1.0, "seed": null, "mode": "fan_avg"}}, "name": "mixed_5b/branch_1_2", "bias_regularizer": null, "bias_constraint": null, "activation": "linear", "trainable": true, "data_format": "channels_last", "padding": "same", "strides": [1, 1], "dilation_rate": [1, 1], "kernel_regularizer": null, "filters": 64, "bias_initializer": {"class_name": "Zeros", "config": {}}, "use_bias": true, "activity_regularizer": null, "kernel_size": [5, 5]}, "inbound_nodes": [[["arelu7", 0, 0, {}]]], "name": "mixed_5b/branch_1_2"}, {"class_name": "Conv2D", "config": {"kernel_constraint": null, "kernel_initializer": {"class_name": "VarianceScaling", "config": {"distribution": "uniform", "scale": 1.0, "seed": null, "mode": "fan_avg"}}, "name": "mixed_5b/branch_2_3", "bias_regularizer": null, "bias_constraint": null, "activation": "linear", "trainable": true, "data_format": "channels_last", "padding": "same", "strides": [1, 1], "dilation_rate": [1, 1], "kernel_regularizer": null, "filters": 96, "bias_initializer": {"class_name": "Zeros", "config": {}}, "use_bias": true, "activity_regularizer": null, "kernel_size": [3, 3]}, "inbound_nodes": [[["arelu10", 0, 0, {}]]], "name": "mixed_5b/branch_2_3"}, {"class_name": "Conv2D", "config": {"kernel_constraint": null, "kernel_initializer": {"class_name": "VarianceScaling", "config": {"distribution": "uniform", "scale": 1.0, "seed": null, "mode": "fan_avg"}}, "name": "mixed_5b/branch_pool_1", "bias_regularizer": null, "bias_constraint": null, "activation": "linear", "trainable": true, "data_format": "channels_last", "padding": "same", "strides": [1, 1], "dilation_rate": [1, 1], "kernel_regularizer": null, "filters": 64, "bias_initializer": {"class_name": "Zeros", "config": {}}, "use_bias": true, "activity_regularizer": null, "kernel_size": [1, 1]}, "inbound_nodes": [[["ap1", 0, 0, {}]]], "name": "mixed_5b/branch_pool_1"}, {"class_name": "BatchNormalization", "config": {"beta_constraint": null, "gamma_initializer": {"class_name": "Ones", "config": {}}, "moving_mean_initializer": {"class_name": "Zeros", "config": {}}, "name": "mixed_5b/bn.branch_0", "epsilon": 0.001, "trainable": true, "moving_variance_initializer": {"class_name": "Ones", "config": {}}, "beta_initializer": {"class_name": "Zeros", "config": {}}, "scale": true, "axis": 3, "gamma_constraint": null, "gamma_regularizer": null, "beta_regularizer": null, "momentum": 0.99, "center": true}, "inbound_nodes": [[["mixed_5b/branch_0", 0, 0, {}]]], "name": "mixed_5b/bn.branch_0"}, {"class_name": "BatchNormalization", "config": {"beta_constraint": null, "gamma_initializer": {"class_name": "Ones", "config": {}}, "moving_mean_initializer": {"class_name": "Zeros", "config": {}}, "name": "mixed_5b/bn.branch_1.2", "epsilon": 0.001, "trainable": true, "moving_variance_initializer": {"class_name": "Ones", "config": {}}, "beta_initializer": {"class_name": "Zeros", "config": {}}, "scale": true, "axis": 3, "gamma_constraint": null, "gamma_regularizer": null, "beta_regularizer": null, "momentum": 0.99, "center": true}, "inbound_nodes": [[["mixed_5b/branch_1_2", 0, 0, {}]]], "name": "mixed_5b/bn.branch_1.2"}, {"class_name": "BatchNormalization", "config": {"beta_constraint": null, "gamma_initializer": {"class_name": "Ones", "config": {}}, "moving_mean_initializer": {"class_name": "Zeros", "config": {}}, "name": "mixed_5b/bn.branch_2.3", "epsilon": 0.001, "trainable": true, "moving_variance_initializer": {"class_name": "Ones", "config": {}}, "beta_initializer": {"class_name": "Zeros", "config": {}}, "scale": true, "axis": 3, "gamma_constraint": null, "gamma_regularizer": null, "beta_regularizer": null, "momentum": 0.99, "center": true}, "inbound_nodes": [[["mixed_5b/branch_2_3", 0, 0, {}]]], "name": "mixed_5b/bn.branch_2.3"}, {"class_name": "BatchNormalization", "config": {"beta_constraint": null, "gamma_initializer": {"class_name": "Ones", "config": {}}, "moving_mean_initializer": {"class_name": "Zeros", "config": {}}, "name": "mixed_5b/bn.branch_pool_1", "epsilon": 0.001, "trainable": true, "moving_variance_initializer": {"class_name": "Ones", "config": {}}, "beta_initializer": {"class_name": "Zeros", "config": {}}, "scale": true, "axis": 3, "gamma_constraint": null, "gamma_regularizer": null, "beta_regularizer": null, "momentum": 0.99, "center": true}, "inbound_nodes": [[["mixed_5b/branch_pool_1", 0, 0, {}]]], "name": "mixed_5b/bn.branch_pool_1"}, {"class_name": "Activation", "config": {"activation": "relu", "trainable": true, "name": "arelu6"}, "inbound_nodes": [[["mixed_5b/bn.branch_0", 0, 0, {}]]], "name": "arelu6"}, {"class_name": "Activation", "config": {"activation": "relu", "trainable": true, "name": "arelu8"}, "inbound_nodes": [[["mixed_5b/bn.branch_1.2", 0, 0, {}]]], "name": "arelu8"}, {"class_name": "Activation", "config": {"activation": "relu", "trainable": true, "name": "arelu11"}, "inbound_nodes": [[["mixed_5b/bn.branch_2.3", 0, 0, {}]]], "name": "arelu11"}, {"class_name": "Activation", "config": {"activation": "relu", "trainable": true, "name": "arelu12"}, "inbound_nodes": [[["mixed_5b/bn.branch_pool_1", 0, 0, {}]]], "name": "arelu12"}, {"class_name": "Concatenate", "config": {"trainable": true, "name": "mixed_5b", "axis": 3}, "inbound_nodes": [[["arelu6", 0, 0, {}], ["arelu8", 0, 0, {}], ["arelu11", 0, 0, {}], ["arelu12", 0, 0, {}]]], "name": "mixed_5b"}, {"class_name": "Conv2D", "config": {"kernel_constraint": null, "kernel_initializer": {"class_name": "VarianceScaling", "config": {"distribution": "uniform", "scale": 1.0, "seed": null, "mode": "fan_avg"}}, "name": "block35/branch_2_1/1", "bias_regularizer": null, "bias_constraint": null, "activation": "linear", "trainable": true, "data_format": "channels_last", "padding": "same", "strides": [1, 1], "dilation_rate": [1, 1], "kernel_regularizer": null, "filters": 32, "bias_initializer": {"class_name": "Zeros", "config": {}}, "use_bias": true, "activity_regularizer": null, "kernel_size": [1, 1]}, "inbound_nodes": [[["mixed_5b", 0, 0, {}]]], "name": "block35/branch_2_1/1"}, {"class_name": "BatchNormalization", "config": {"beta_constraint": null, "gamma_initializer": {"class_name": "Ones", "config": {}}, "moving_mean_initializer": {"class_name": "Zeros", "config": {}}, "name": "block35/bn_branch_2_1/1", "epsilon": 0.001, "trainable": true, "moving_variance_initializer": {"class_name": "Ones", "config": {}}, "beta_initializer": {"class_name": "Zeros", "config": {}}, "scale": true, "axis": 3, "gamma_constraint": null, "gamma_regularizer": null, "beta_regularizer": null, "momentum": 0.99, "center": true}, "inbound_nodes": [[["block35/branch_2_1/1", 0, 0, {}]]], "name": "block35/bn_branch_2_1/1"}, {"class_name": "Activation", "config": {"activation": "relu", "trainable": true, "name": "block35/branch_2_1/relu/1"}, "inbound_nodes": [[["block35/bn_branch_2_1/1", 0, 0, {}]]], "name": "block35/branch_2_1/relu/1"}, {"class_name": "Conv2D", "config": {"kernel_constraint": null, "kernel_initializer": {"class_name": "VarianceScaling", "config": {"distribution": "uniform", "scale": 1.0, "seed": null, "mode": "fan_avg"}}, "name": "block35/branch_1_1/1", "bias_regularizer": null, "bias_constraint": null, "activation": "linear", "trainable": true, "data_format": "channels_last", "padding": "same", "strides": [1, 1], "dilation_rate": [1, 1], "kernel_regularizer": null, "filters": 32, "bias_initializer": {"class_name": "Zeros", "config": {}}, "use_bias": true, "activity_regularizer": null, "kernel_size": [1, 1]}, "inbound_nodes": [[["mixed_5b", 0, 0, {}]]], "name": "block35/branch_1_1/1"}, {"class_name": "Conv2D", "config": {"kernel_constraint": null, "kernel_initializer": {"class_name": "VarianceScaling", "config": {"distribution": "uniform", "scale": 1.0, "seed": null, "mode": "fan_avg"}}, "name": "block35/branch_2_2/1", "bias_regularizer": null, "bias_constraint": null, "activation": "linear", "trainable": true, "data_format": "channels_last", "padding": "same", "strides": [1, 1], "dilation_rate": [1, 1], "kernel_regularizer": null, "filters": 48, "bias_initializer": {"class_name": "Zeros", "config": {}}, "use_bias": true, "activity_regularizer": null, "kernel_size": [3, 3]}, "inbound_nodes": [[["block35/branch_2_1/relu/1", 0, 0, {}]]], "name": "block35/branch_2_2/1"}, {"class_name": "BatchNormalization", "config": {"beta_constraint": null, "gamma_initializer": {"class_name": "Ones", "config": {}}, "moving_mean_initializer": {"class_name": "Zeros", "config": {}}, "name": "block35/bn_branch_1_1/1", "epsilon": 0.001, "trainable": true, "moving_variance_initializer": {"class_name": "Ones", "config": {}}, "beta_initializer": {"class_name": "Zeros", "config": {}}, "scale": true, "axis": 3, "gamma_constraint": null, "gamma_regularizer": null, "beta_regularizer": null, "momentum": 0.99, "center": true}, "inbound_nodes": [[["block35/branch_1_1/1", 0, 0, {}]]], "name": "block35/bn_branch_1_1/1"}, {"class_name": "BatchNormalization", "config": {"beta_constraint": null, "gamma_initializer": {"class_name": "Ones", "config": {}}, "moving_mean_initializer": {"class_name": "Zeros", "config": {}}, "name": "block35/bn_branch_2_2/1", "epsilon": 0.001, "trainable": true, "moving_variance_initializer": {"class_name": "Ones", "config": {}}, "beta_initializer": {"class_name": "Zeros", "config": {}}, "scale": true, "axis": 3, "gamma_constraint": null, "gamma_regularizer": null, "beta_regularizer": null, "momentum": 0.99, "center": true}, "inbound_nodes": [[["block35/branch_2_2/1", 0, 0, {}]]], "name": "block35/bn_branch_2_2/1"}, {"class_name": "Activation", "config": {"activation": "relu", "trainable": true, "name": "block35/branch_1_1/relu/1"}, "inbound_nodes": [[["block35/bn_branch_1_1/1", 0, 0, {}]]], "name": "block35/branch_1_1/relu/1"}, {"class_name": "Activation", "config": {"activation": "relu", "trainable": true, "name": "block35/branch_2_2/relu/1"}, "inbound_nodes": [[["block35/bn_branch_2_2/1", 0, 0, {}]]], "name": "block35/branch_2_2/relu/1"}, {"class_name": "Conv2D", "config": {"kernel_constraint": null, "kernel_initializer": {"class_name": "VarianceScaling", "config": {"distribution": "uniform", "scale": 1.0, "seed": null, "mode": "fan_avg"}}, "name": "block35/branch_0/1", "bias_regularizer": null, "bias_constraint": null, "activation": "linear", "trainable": true, "data_format": "channels_last", "padding": "same", "strides": [1, 1], "dilation_rate": [1, 1], "kernel_regularizer": null, "filters": 32, "bias_initializer": {"class_name": "Zeros", "config": {}}, "use_bias": true, "activity_regularizer": null, "kernel_size": [1, 1]}, "inbound_nodes": [[["mixed_5b", 0, 0, {}]]], "name": "block35/branch_0/1"}, {"class_name": "Conv2D", "config": {"kernel_constraint": null, "kernel_initializer": {"class_name": "VarianceScaling", "config": {"distribution": "uniform", "scale": 1.0, "seed": null, "mode": "fan_avg"}}, "name": "block35/branch_1_2/1", "bias_regularizer": null, "bias_constraint": null, "activation": "linear", "trainable": true, "data_format": "channels_last", "padding": "same", "strides": [1, 1], "dilation_rate": [1, 1], "kernel_regularizer": null, "filters": 32, "bias_initializer": {"class_name": "Zeros", "config": {}}, "use_bias": true, "activity_regularizer": null, "kernel_size": [3, 3]}, "inbound_nodes": [[["block35/branch_1_1/relu/1", 0, 0, {}]]], "name": "block35/branch_1_2/1"}, {"class_name": "Conv2D", "config": {"kernel_constraint": null, "kernel_initializer": {"class_name": "VarianceScaling", "config": {"distribution": "uniform", "scale": 1.0, "seed": null, "mode": "fan_avg"}}, "name": "block35/branch_2_3/1", "bias_regularizer": null, "bias_constraint": null, "activation": "linear", "trainable": true, "data_format": "channels_last", "padding": "same", "strides": [1, 1], "dilation_rate": [1, 1], "kernel_regularizer": null, "filters": 64, "bias_initializer": {"class_name": "Zeros", "config": {}}, "use_bias": true, "activity_regularizer": null, "kernel_size": [3, 3]}, "inbound_nodes": [[["block35/branch_2_2/relu/1", 0, 0, {}]]], "name": "block35/branch_2_3/1"}, {"class_name": "BatchNormalization", "config": {"beta_constraint": null, "gamma_initializer": {"class_name": "Ones", "config": {}}, "moving_mean_initializer": {"class_name": "Zeros", "config": {}}, "name": "block35/bn_branch_0/1", "epsilon": 0.001, "trainable": true, "moving_variance_initializer": {"class_name": "Ones", "config": {}}, "beta_initializer": {"class_name": "Zeros", "config": {}}, "scale": true, "axis": 3, "gamma_constraint": null, "gamma_regularizer": null, "beta_regularizer": null, "momentum": 0.99, "center": true}, "inbound_nodes": [[["block35/branch_0/1", 0, 0, {}]]], "name": "block35/bn_branch_0/1"}, {"class_name": "BatchNormalization", "config": {"beta_constraint": null, "gamma_initializer": {"class_name": "Ones", "config": {}}, "moving_mean_initializer": {"class_name": "Zeros", "config": {}}, "name": "block35/bn_branch_1_2/1", "epsilon": 0.001, "trainable": true, "moving_variance_initializer": {"class_name": "Ones", "config": {}}, "beta_initializer": {"class_name": "Zeros", "config": {}}, "scale": true, "axis": 3, "gamma_constraint": null, "gamma_regularizer": null, "beta_regularizer": null, "momentum": 0.99, "center": true}, "inbound_nodes": [[["block35/branch_1_2/1", 0, 0, {}]]], "name": "block35/bn_branch_1_2/1"}, {"class_name": "BatchNormalization", "config": {"beta_constraint": null, "gamma_initializer": {"class_name": "Ones", "config": {}}, "moving_mean_initializer": {"class_name": "Zeros", "config": {}}, "name": "block35/bn_branch_2_3/1", "epsilon": 0.001, "trainable": true, "moving_variance_initializer": {"class_name": "Ones", "config": {}}, "beta_initializer": {"class_name": "Zeros", "config": {}}, "scale": true, "axis": 3, "gamma_constraint": null, "gamma_regularizer": null, "beta_regularizer": null, "momentum": 0.99, "center": true}, "inbound_nodes": [[["block35/branch_2_3/1", 0, 0, {}]]], "name": "block35/bn_branch_2_3/1"}, {"class_name": "Activation", "config": {"activation": "relu", "trainable": true, "name": "block35/branch_0/relu/1"}, "inbound_nodes": [[["block35/bn_branch_0/1", 0, 0, {}]]], "name": "block35/branch_0/relu/1"}, {"class_name": "Activation", "config": {"activation": "relu", "trainable": true, "name": "block35/branch_1_2/relu/1"}, "inbound_nodes": [[["block35/bn_branch_1_2/1", 0, 0, {}]]], "name": "block35/branch_1_2/relu/1"}, {"class_name": "Activation", "config": {"activation": "relu", "trainable": true, "name": "block35/branch_2_3/relu/1"}, "inbound_nodes": [[["block35/bn_branch_2_3/1", 0, 0, {}]]], "name": "block35/branch_2_3/relu/1"}, {"class_name": "Concatenate", "config": {"trainable": true, "name": "block35_1_mixed", "axis": 3}, "inbound_nodes": [[["block35/branch_0/relu/1", 0, 0, {}], ["block35/branch_1_2/relu/1", 0, 0, {}], ["block35/branch_2_3/relu/1", 0, 0, {}]]], "name": "block35_1_mixed"}, {"class_name": "Conv2D", "config": {"kernel_constraint": null, "kernel_initializer": {"class_name": "VarianceScaling", "config": {"distribution": "uniform", "scale": 1.0, "seed": null, "mode": "fan_avg"}}, "name": "block35_1_conv", "bias_regularizer": null, "bias_constraint": null, "activation": "linear", "trainable": true, "data_format": "channels_last", "padding": "same", "strides": [1, 1], "dilation_rate": [1, 1], "kernel_regularizer": null, "filters": 320, "bias_initializer": {"class_name": "Zeros", "config": {}}, "use_bias": true, "activity_regularizer": null, "kernel_size": [1, 1]}, "inbound_nodes": [[["block35_1_mixed", 0, 0, {}]]], "name": "block35_1_conv"}, {"class_name": "Lambda", "config": {"function": ["c\u0002\u0000\u0000\u0000\u0002\u0000\u0000\u0000\u0003\u0000\u0000\u0000S\u0000\u0000\u0000s\u0014\u0000\u0000\u0000|\u0000\u0000d\u0001\u0000\u0019|\u0000\u0000d\u0002\u0000\u0019|\u0001\u0000\u0014\u0017S(\u0003\u0000\u0000\u0000Ni\u0000\u0000\u0000\u0000i\u0001\u0000\u0000\u0000(\u0000\u0000\u0000\u0000(\u0002\u0000\u0000\u0000t\u0006\u0000\u0000\u0000inputst\u0005\u0000\u0000\u0000scale(\u0000\u0000\u0000\u0000(\u0000\u0000\u0000\u0000s0\u0000\u0000\u0000/ai/sources/keras.ins.facenet/inceptionresnet.pyt\b\u0000\u0000\u0000<lambda>N\u0000\u0000\u0000t\u0000\u0000\u0000\u0000", null, null], "name": "block35_1", "trainable": true, "function_type": "lambda", "arguments": {"scale": 0.17}, "output_shape": [35, 35, 320], "output_shape_type": "raw"}, "inbound_nodes": [[["mixed_5b", 0, 0, {}], ["block35_1_conv", 0, 0, {}]]], "name": "block35_1"}, {"class_name": "Activation", "config": {"activation": "relu", "trainable": true, "name": "block35_1_ac"}, "inbound_nodes": [[["block35_1", 0, 0, {}]]], "name": "block35_1_ac"}, {"class_name": "Conv2D", "config": {"kernel_constraint": null, "kernel_initializer": {"class_name": "VarianceScaling", "config": {"distribution": "uniform", "scale": 1.0, "seed": null, "mode": "fan_avg"}}, "name": "block35/branch_2_1/2", "bias_regularizer": null, "bias_constraint": null, "activation": "linear", "trainable": true, "data_format": "channels_last", "padding": "same", "strides": [1, 1], "dilation_rate": [1, 1], "kernel_regularizer": null, "filters": 32, "bias_initializer": {"class_name": "Zeros", "config": {}}, "use_bias": true, "activity_regularizer": null, "kernel_size": [1, 1]}, "inbound_nodes": [[["block35_1_ac", 0, 0, {}]]], "name": "block35/branch_2_1/2"}, {"class_name": "BatchNormalization", "config": {"beta_constraint": null, "gamma_initializer": {"class_name": "Ones", "config": {}}, "moving_mean_initializer": {"class_name": "Zeros", "config": {}}, "name": "block35/bn_branch_2_1/2", "epsilon": 0.001, "trainable": true, "moving_variance_initializer": {"class_name": "Ones", "config": {}}, "beta_initializer": {"class_name": "Zeros", "config": {}}, "scale": true, "axis": 3, "gamma_constraint": null, "gamma_regularizer": null, "beta_regularizer": null, "momentum": 0.99, "center": true}, "inbound_nodes": [[["block35/branch_2_1/2", 0, 0, {}]]], "name": "block35/bn_branch_2_1/2"}, {"class_name": "Activation", "config": {"activation": "relu", "trainable": true, "name": "block35/branch_2_1/relu/2"}, "inbound_nodes": [[["block35/bn_branch_2_1/2", 0, 0, {}]]], "name": "block35/branch_2_1/relu/2"}, {"class_name": "Conv2D", "config": {"kernel_constraint": null, "kernel_initializer": {"class_name": "VarianceScaling", "config": {"distribution": "uniform", "scale": 1.0, "seed": null, "mode": "fan_avg"}}, "name": "block35/branch_1_1/2", "bias_regularizer": null, "bias_constraint": null, "activation": "linear", "trainable": true, "data_format": "channels_last", "padding": "same", "strides": [1, 1], "dilation_rate": [1, 1], "kernel_regularizer": null, "filters": 32, "bias_initializer": {"class_name": "Zeros", "config": {}}, "use_bias": true, "activity_regularizer": null, "kernel_size": [1, 1]}, "inbound_nodes": [[["block35_1_ac", 0, 0, {}]]], "name": "block35/branch_1_1/2"}, {"class_name": "Conv2D", "config": {"kernel_constraint": null, "kernel_initializer": {"class_name": "VarianceScaling", "config": {"distribution": "uniform", "scale": 1.0, "seed": null, "mode": "fan_avg"}}, "name": "block35/branch_2_2/2", "bias_regularizer": null, "bias_constraint": null, "activation": "linear", "trainable": true, "data_format": "channels_last", "padding": "same", "strides": [1, 1], "dilation_rate": [1, 1], "kernel_regularizer": null, "filters": 48, "bias_initializer": {"class_name": "Zeros", "config": {}}, "use_bias": true, "activity_regularizer": null, "kernel_size": [3, 3]}, "inbound_nodes": [[["block35/branch_2_1/relu/2", 0, 0, {}]]], "name": "block35/branch_2_2/2"}, {"class_name": "BatchNormalization", "config": {"beta_constraint": null, "gamma_initializer": {"class_name": "Ones", "config": {}}, "moving_mean_initializer": {"class_name": "Zeros", "config": {}}, "name": "block35/bn_branch_1_1/2", "epsilon": 0.001, "trainable": true, "moving_variance_initializer": {"class_name": "Ones", "config": {}}, "beta_initializer": {"class_name": "Zeros", "config": {}}, "scale": true, "axis": 3, "gamma_constraint": null, "gamma_regularizer": null, "beta_regularizer": null, "momentum": 0.99, "center": true}, "inbound_nodes": [[["block35/branch_1_1/2", 0, 0, {}]]], "name": "block35/bn_branch_1_1/2"}, {"class_name": "BatchNormalization", "config": {"beta_constraint": null, "gamma_initializer": {"class_name": "Ones", "config": {}}, "moving_mean_initializer": {"class_name": "Zeros", "config": {}}, "name": "block35/bn_branch_2_2/2", "epsilon": 0.001, "trainable": true, "moving_variance_initializer": {"class_name": "Ones", "config": {}}, "beta_initializer": {"class_name": "Zeros", "config": {}}, "scale": true, "axis": 3, "gamma_constraint": null, "gamma_regularizer": null, "beta_regularizer": null, "momentum": 0.99, "center": true}, "inbound_nodes": [[["block35/branch_2_2/2", 0, 0, {}]]], "name": "block35/bn_branch_2_2/2"}, {"class_name": "Activation", "config": {"activation": "relu", "trainable": true, "name": "block35/branch_1_1/relu/2"}, "inbound_nodes": [[["block35/bn_branch_1_1/2", 0, 0, {}]]], "name": "block35/branch_1_1/relu/2"}, {"class_name": "Activation", "config": {"activation": "relu", "trainable": true, "name": "block35/branch_2_2/relu/2"}, "inbound_nodes": [[["block35/bn_branch_2_2/2", 0, 0, {}]]], "name": "block35/branch_2_2/relu/2"}, {"class_name": "Conv2D", "config": {"kernel_constraint": null, "kernel_initializer": {"class_name": "VarianceScaling", "config": {"distribution": "uniform", "scale": 1.0, "seed": null, "mode": "fan_avg"}}, "name": "block35/branch_0/2", "bias_regularizer": null, "bias_constraint": null, "activation": "linear", "trainable": true, "data_format": "channels_last", "padding": "same", "strides": [1, 1], "dilation_rate": [1, 1], "kernel_regularizer": null, "filters": 32, "bias_initializer": {"class_name": "Zeros", "config": {}}, "use_bias": true, "activity_regularizer": null, "kernel_size": [1, 1]}, "inbound_nodes": [[["block35_1_ac", 0, 0, {}]]], "name": "block35/branch_0/2"}, {"class_name": "Conv2D", "config": {"kernel_constraint": null, "kernel_initializer": {"class_name": "VarianceScaling", "config": {"distribution": "uniform", "scale": 1.0, "seed": null, "mode": "fan_avg"}}, "name": "block35/branch_1_2/2", "bias_regularizer": null, "bias_constraint": null, "activation": "linear", "trainable": true, "data_format": "channels_last", "padding": "same", "strides": [1, 1], "dilation_rate": [1, 1], "kernel_regularizer": null, "filters": 32, "bias_initializer": {"class_name": "Zeros", "config": {}}, "use_bias": true, "activity_regularizer": null, "kernel_size": [3, 3]}, "inbound_nodes": [[["block35/branch_1_1/relu/2", 0, 0, {}]]], "name": "block35/branch_1_2/2"}, {"class_name": "Conv2D", "config": {"kernel_constraint": null, "kernel_initializer": {"class_name": "VarianceScaling", "config": {"distribution": "uniform", "scale": 1.0, "seed": null, "mode": "fan_avg"}}, "name": "block35/branch_2_3/2", "bias_regularizer": null, "bias_constraint": null, "activation": "linear", "trainable": true, "data_format": "channels_last", "padding": "same", "strides": [1, 1], "dilation_rate": [1, 1], "kernel_regularizer": null, "filters": 64, "bias_initializer": {"class_name": "Zeros", "config": {}}, "use_bias": true, "activity_regularizer": null, "kernel_size": [3, 3]}, "inbound_nodes": [[["block35/branch_2_2/relu/2", 0, 0, {}]]], "name": "block35/branch_2_3/2"}, {"class_name": "BatchNormalization", "config": {"beta_constraint": null, "gamma_initializer": {"class_name": "Ones", "config": {}}, "moving_mean_initializer": {"class_name": "Zeros", "config": {}}, "name": "block35/bn_branch_0/2", "epsilon": 0.001, "trainable": true, "moving_variance_initializer": {"class_name": "Ones", "config": {}}, "beta_initializer": {"class_name": "Zeros", "config": {}}, "scale": true, "axis": 3, "gamma_constraint": null, "gamma_regularizer": null, "beta_regularizer": null, "momentum": 0.99, "center": true}, "inbound_nodes": [[["block35/branch_0/2", 0, 0, {}]]], "name": "block35/bn_branch_0/2"}, {"class_name": "BatchNormalization", "config": {"beta_constraint": null, "gamma_initializer": {"class_name": "Ones", "config": {}}, "moving_mean_initializer": {"class_name": "Zeros", "config": {}}, "name": "block35/bn_branch_1_2/2", "epsilon": 0.001, "trainable": true, "moving_variance_initializer": {"class_name": "Ones", "config": {}}, "beta_initializer": {"class_name": "Zeros", "config": {}}, "scale": true, "axis": 3, "gamma_constraint": null, "gamma_regularizer": null, "beta_regularizer": null, "momentum": 0.99, "center": true}, "inbound_nodes": [[["block35/branch_1_2/2", 0, 0, {}]]], "name": "block35/bn_branch_1_2/2"}, {"class_name": "BatchNormalization", "config": {"beta_constraint": null, "gamma_initializer": {"class_name": "Ones", "config": {}}, "moving_mean_initializer": {"class_name": "Zeros", "config": {}}, "name": "block35/bn_branch_2_3/2", "epsilon": 0.001, "trainable": true, "moving_variance_initializer": {"class_name": "Ones", "config": {}}, "beta_initializer": {"class_name": "Zeros", "config": {}}, "scale": true, "axis": 3, "gamma_constraint": null, "gamma_regularizer": null, "beta_regularizer": null, "momentum": 0.99, "center": true}, "inbound_nodes": [[["block35/branch_2_3/2", 0, 0, {}]]], "name": "block35/bn_branch_2_3/2"}, {"class_name": "Activation", "config": {"activation": "relu", "trainable": true, "name": "block35/branch_0/relu/2"}, "inbound_nodes": [[["block35/bn_branch_0/2", 0, 0, {}]]], "name": "block35/branch_0/relu/2"}, {"class_name": "Activation", "config": {"activation": "relu", "trainable": true, "name": "block35/branch_1_2/relu/2"}, "inbound_nodes": [[["block35/bn_branch_1_2/2", 0, 0, {}]]], "name": "block35/branch_1_2/relu/2"}, {"class_name": "Activation", "config": {"activation": "relu", "trainable": true, "name": "block35/branch_2_3/relu/2"}, "inbound_nodes": [[["block35/bn_branch_2_3/2", 0, 0, {}]]], "name": "block35/branch_2_3/relu/2"}, {"class_name": "Concatenate", "config": {"trainable": true, "name": "block35_2_mixed", "axis": 3}, "inbound_nodes": [[["block35/branch_0/relu/2", 0, 0, {}], ["block35/branch_1_2/relu/2", 0, 0, {}], ["block35/branch_2_3/relu/2", 0, 0, {}]]], "name": "block35_2_mixed"}, {"class_name": "Conv2D", "config": {"kernel_constraint": null, "kernel_initializer": {"class_name": "VarianceScaling", "config": {"distribution": "uniform", "scale": 1.0, "seed": null, "mode": "fan_avg"}}, "name": "block35_2_conv", "bias_regularizer": null, "bias_constraint": null, "activation": "linear", "trainable": true, "data_format": "channels_last", "padding": "same", "strides": [1, 1], "dilation_rate": [1, 1], "kernel_regularizer": null, "filters": 320, "bias_initializer": {"class_name": "Zeros", "config": {}}, "use_bias": true, "activity_regularizer": null, "kernel_size": [1, 1]}, "inbound_nodes": [[["block35_2_mixed", 0, 0, {}]]], "name": "block35_2_conv"}, {"class_name": "Lambda", "config": {"function": ["c\u0002\u0000\u0000\u0000\u0002\u0000\u0000\u0000\u0003\u0000\u0000\u0000S\u0000\u0000\u0000s\u0014\u0000\u0000\u0000|\u0000\u0000d\u0001\u0000\u0019|\u0000\u0000d\u0002\u0000\u0019|\u0001\u0000\u0014\u0017S(\u0003\u0000\u0000\u0000Ni\u0000\u0000\u0000\u0000i\u0001\u0000\u0000\u0000(\u0000\u0000\u0000\u0000(\u0002\u0000\u0000\u0000t\u0006\u0000\u0000\u0000inputst\u0005\u0000\u0000\u0000scale(\u0000\u0000\u0000\u0000(\u0000\u0000\u0000\u0000s0\u0000\u0000\u0000/ai/sources/keras.ins.facenet/inceptionresnet.pyt\b\u0000\u0000\u0000<lambda>N\u0000\u0000\u0000t\u0000\u0000\u0000\u0000", null, null], "name": "block35_2", "trainable": true, "function_type": "lambda", "arguments": {"scale": 0.17}, "output_shape": [35, 35, 320], "output_shape_type": "raw"}, "inbound_nodes": [[["block35_1_ac", 0, 0, {}], ["block35_2_conv", 0, 0, {}]]], "name": "block35_2"}, {"class_name": "Activation", "config": {"activation": "relu", "trainable": true, "name": "block35_2_ac"}, "inbound_nodes": [[["block35_2", 0, 0, {}]]], "name": "block35_2_ac"}, {"class_name": "Conv2D", "config": {"kernel_constraint": null, "kernel_initializer": {"class_name": "VarianceScaling", "config": {"distribution": "uniform", "scale": 1.0, "seed": null, "mode": "fan_avg"}}, "name": "block35/branch_2_1/3", "bias_regularizer": null, "bias_constraint": null, "activation": "linear", "trainable": true, "data_format": "channels_last", "padding": "same", "strides": [1, 1], "dilation_rate": [1, 1], "kernel_regularizer": null, "filters": 32, "bias_initializer": {"class_name": "Zeros", "config": {}}, "use_bias": true, "activity_regularizer": null, "kernel_size": [1, 1]}, "inbound_nodes": [[["block35_2_ac", 0, 0, {}]]], "name": "block35/branch_2_1/3"}, {"class_name": "BatchNormalization", "config": {"beta_constraint": null, "gamma_initializer": {"class_name": "Ones", "config": {}}, "moving_mean_initializer": {"class_name": "Zeros", "config": {}}, "name": "block35/bn_branch_2_1/3", "epsilon": 0.001, "trainable": true, "moving_variance_initializer": {"class_name": "Ones", "config": {}}, "beta_initializer": {"class_name": "Zeros", "config": {}}, "scale": true, "axis": 3, "gamma_constraint": null, "gamma_regularizer": null, "beta_regularizer": null, "momentum": 0.99, "center": true}, "inbound_nodes": [[["block35/branch_2_1/3", 0, 0, {}]]], "name": "block35/bn_branch_2_1/3"}, {"class_name": "Activation", "config": {"activation": "relu", "trainable": true, "name": "block35/branch_2_1/relu/3"}, "inbound_nodes": [[["block35/bn_branch_2_1/3", 0, 0, {}]]], "name": "block35/branch_2_1/relu/3"}, {"class_name": "Conv2D", "config": {"kernel_constraint": null, "kernel_initializer": {"class_name": "VarianceScaling", "config": {"distribution": "uniform", "scale": 1.0, "seed": null, "mode": "fan_avg"}}, "name": "block35/branch_1_1/3", "bias_regularizer": null, "bias_constraint": null, "activation": "linear", "trainable": true, "data_format": "channels_last", "padding": "same", "strides": [1, 1], "dilation_rate": [1, 1], "kernel_regularizer": null, "filters": 32, "bias_initializer": {"class_name": "Zeros", "config": {}}, "use_bias": true, "activity_regularizer": null, "kernel_size": [1, 1]}, "inbound_nodes": [[["block35_2_ac", 0, 0, {}]]], "name": "block35/branch_1_1/3"}, {"class_name": "Conv2D", "config": {"kernel_constraint": null, "kernel_initializer": {"class_name": "VarianceScaling", "config": {"distribution": "uniform", "scale": 1.0, "seed": null, "mode": "fan_avg"}}, "name": "block35/branch_2_2/3", "bias_regularizer": null, "bias_constraint": null, "activation": "linear", "trainable": true, "data_format": "channels_last", "padding": "same", "strides": [1, 1], "dilation_rate": [1, 1], "kernel_regularizer": null, "filters": 48, "bias_initializer": {"class_name": "Zeros", "config": {}}, "use_bias": true, "activity_regularizer": null, "kernel_size": [3, 3]}, "inbound_nodes": [[["block35/branch_2_1/relu/3", 0, 0, {}]]], "name": "block35/branch_2_2/3"}, {"class_name": "BatchNormalization", "config": {"beta_constraint": null, "gamma_initializer": {"class_name": "Ones", "config": {}}, "moving_mean_initializer": {"class_name": "Zeros", "config": {}}, "name": "block35/bn_branch_1_1/3", "epsilon": 0.001, "trainable": true, "moving_variance_initializer": {"class_name": "Ones", "config": {}}, "beta_initializer": {"class_name": "Zeros", "config": {}}, "scale": true, "axis": 3, "gamma_constraint": null, "gamma_regularizer": null, "beta_regularizer": null, "momentum": 0.99, "center": true}, "inbound_nodes": [[["block35/branch_1_1/3", 0, 0, {}]]], "name": "block35/bn_branch_1_1/3"}, {"class_name": "BatchNormalization", "config": {"beta_constraint": null, "gamma_initializer": {"class_name": "Ones", "config": {}}, "moving_mean_initializer": {"class_name": "Zeros", "config": {}}, "name": "block35/bn_branch_2_2/3", "epsilon": 0.001, "trainable": true, "moving_variance_initializer": {"class_name": "Ones", "config": {}}, "beta_initializer": {"class_name": "Zeros", "config": {}}, "scale": true, "axis": 3, "gamma_constraint": null, "gamma_regularizer": null, "beta_regularizer": null, "momentum": 0.99, "center": true}, "inbound_nodes": [[["block35/branch_2_2/3", 0, 0, {}]]], "name": "block35/bn_branch_2_2/3"}, {"class_name": "Activation", "config": {"activation": "relu", "trainable": true, "name": "block35/branch_1_1/relu/3"}, "inbound_nodes": [[["block35/bn_branch_1_1/3", 0, 0, {}]]], "name": "block35/branch_1_1/relu/3"}, {"class_name": "Activation", "config": {"activation": "relu", "trainable": true, "name": "block35/branch_2_2/relu/3"}, "inbound_nodes": [[["block35/bn_branch_2_2/3", 0, 0, {}]]], "name": "block35/branch_2_2/relu/3"}, {"class_name": "Conv2D", "config": {"kernel_constraint": null, "kernel_initializer": {"class_name": "VarianceScaling", "config": {"distribution": "uniform", "scale": 1.0, "seed": null, "mode": "fan_avg"}}, "name": "block35/branch_0/3", "bias_regularizer": null, "bias_constraint": null, "activation": "linear", "trainable": true, "data_format": "channels_last", "padding": "same", "strides": [1, 1], "dilation_rate": [1, 1], "kernel_regularizer": null, "filters": 32, "bias_initializer": {"class_name": "Zeros", "config": {}}, "use_bias": true, "activity_regularizer": null, "kernel_size": [1, 1]}, "inbound_nodes": [[["block35_2_ac", 0, 0, {}]]], "name": "block35/branch_0/3"}, {"class_name": "Conv2D", "config": {"kernel_constraint": null, "kernel_initializer": {"class_name": "VarianceScaling", "config": {"distribution": "uniform", "scale": 1.0, "seed": null, "mode": "fan_avg"}}, "name": "block35/branch_1_2/3", "bias_regularizer": null, "bias_constraint": null, "activation": "linear", "trainable": true, "data_format": "channels_last", "padding": "same", "strides": [1, 1], "dilation_rate": [1, 1], "kernel_regularizer": null, "filters": 32, "bias_initializer": {"class_name": "Zeros", "config": {}}, "use_bias": true, "activity_regularizer": null, "kernel_size": [3, 3]}, "inbound_nodes": [[["block35/branch_1_1/relu/3", 0, 0, {}]]], "name": "block35/branch_1_2/3"}, {"class_name": "Conv2D", "config": {"kernel_constraint": null, "kernel_initializer": {"class_name": "VarianceScaling", "config": {"distribution": "uniform", "scale": 1.0, "seed": null, "mode": "fan_avg"}}, "name": "block35/branch_2_3/3", "bias_regularizer": null, "bias_constraint": null, "activation": "linear", "trainable": true, "data_format": "channels_last", "padding": "same", "strides": [1, 1], "dilation_rate": [1, 1], "kernel_regularizer": null, "filters": 64, "bias_initializer": {"class_name": "Zeros", "config": {}}, "use_bias": true, "activity_regularizer": null, "kernel_size": [3, 3]}, "inbound_nodes": [[["block35/branch_2_2/relu/3", 0, 0, {}]]], "name": "block35/branch_2_3/3"}, {"class_name": "BatchNormalization", "config": {"beta_constraint": null, "gamma_initializer": {"class_name": "Ones", "config": {}}, "moving_mean_initializer": {"class_name": "Zeros", "config": {}}, "name": "block35/bn_branch_0/3", "epsilon": 0.001, "trainable": true, "moving_variance_initializer": {"class_name": "Ones", "config": {}}, "beta_initializer": {"class_name": "Zeros", "config": {}}, "scale": true, "axis": 3, "gamma_constraint": null, "gamma_regularizer": null, "beta_regularizer": null, "momentum": 0.99, "center": true}, "inbound_nodes": [[["block35/branch_0/3", 0, 0, {}]]], "name": "block35/bn_branch_0/3"}, {"class_name": "BatchNormalization", "config": {"beta_constraint": null, "gamma_initializer": {"class_name": "Ones", "config": {}}, "moving_mean_initializer": {"class_name": "Zeros", "config": {}}, "name": "block35/bn_branch_1_2/3", "epsilon": 0.001, "trainable": true, "moving_variance_initializer": {"class_name": "Ones", "config": {}}, "beta_initializer": {"class_name": "Zeros", "config": {}}, "scale": true, "axis": 3, "gamma_constraint": null, "gamma_regularizer": null, "beta_regularizer": null, "momentum": 0.99, "center": true}, "inbound_nodes": [[["block35/branch_1_2/3", 0, 0, {}]]], "name": "block35/bn_branch_1_2/3"}, {"class_name": "BatchNormalization", "config": {"beta_constraint": null, "gamma_initializer": {"class_name": "Ones", "config": {}}, "moving_mean_initializer": {"class_name": "Zeros", "config": {}}, "name": "block35/bn_branch_2_3/3", "epsilon": 0.001, "trainable": true, "moving_variance_initializer": {"class_name": "Ones", "config": {}}, "beta_initializer": {"class_name": "Zeros", "config": {}}, "scale": true, "axis": 3, "gamma_constraint": null, "gamma_regularizer": null, "beta_regularizer": null, "momentum": 0.99, "center": true}, "inbound_nodes": [[["block35/branch_2_3/3", 0, 0, {}]]], "name": "block35/bn_branch_2_3/3"}, {"class_name": "Activation", "config": {"activation": "relu", "trainable": true, "name": "block35/branch_0/relu/3"}, "inbound_nodes": [[["block35/bn_branch_0/3", 0, 0, {}]]], "name": "block35/branch_0/relu/3"}, {"class_name": "Activation", "config": {"activation": "relu", "trainable": true, "name": "block35/branch_1_2/relu/3"}, "inbound_nodes": [[["block35/bn_branch_1_2/3", 0, 0, {}]]], "name": "block35/branch_1_2/relu/3"}, {"class_name": "Activation", "config": {"activation": "relu", "trainable": true, "name": "block35/branch_2_3/relu/3"}, "inbound_nodes": [[["block35/bn_branch_2_3/3", 0, 0, {}]]], "name": "block35/branch_2_3/relu/3"}, {"class_name": "Concatenate", "config": {"trainable": true, "name": "block35_3_mixed", "axis": 3}, "inbound_nodes": [[["block35/branch_0/relu/3", 0, 0, {}], ["block35/branch_1_2/relu/3", 0, 0, {}], ["block35/branch_2_3/relu/3", 0, 0, {}]]], "name": "block35_3_mixed"}, {"class_name": "Conv2D", "config": {"kernel_constraint": null, "kernel_initializer": {"class_name": "VarianceScaling", "config": {"distribution": "uniform", "scale": 1.0, "seed": null, "mode": "fan_avg"}}, "name": "block35_3_conv", "bias_regularizer": null, "bias_constraint": null, "activation": "linear", "trainable": true, "data_format": "channels_last", "padding": "same", "strides": [1, 1], "dilation_rate": [1, 1], "kernel_regularizer": null, "filters": 320, "bias_initializer": {"class_name": "Zeros", "config": {}}, "use_bias": true, "activity_regularizer": null, "kernel_size": [1, 1]}, "inbound_nodes": [[["block35_3_mixed", 0, 0, {}]]], "name": "block35_3_conv"}, {"class_name": "Lambda", "config": {"function": ["c\u0002\u0000\u0000\u0000\u0002\u0000\u0000\u0000\u0003\u0000\u0000\u0000S\u0000\u0000\u0000s\u0014\u0000\u0000\u0000|\u0000\u0000d\u0001\u0000\u0019|\u0000\u0000d\u0002\u0000\u0019|\u0001\u0000\u0014\u0017S(\u0003\u0000\u0000\u0000Ni\u0000\u0000\u0000\u0000i\u0001\u0000\u0000\u0000(\u0000\u0000\u0000\u0000(\u0002\u0000\u0000\u0000t\u0006\u0000\u0000\u0000inputst\u0005\u0000\u0000\u0000scale(\u0000\u0000\u0000\u0000(\u0000\u0000\u0000\u0000s0\u0000\u0000\u0000/ai/sources/keras.ins.facenet/inceptionresnet.pyt\b\u0000\u0000\u0000<lambda>N\u0000\u0000\u0000t\u0000\u0000\u0000\u0000", null, null], "name": "block35_3", "trainable": true, "function_type": "lambda", "arguments": {"scale": 0.17}, "output_shape": [35, 35, 320], "output_shape_type": "raw"}, "inbound_nodes": [[["block35_2_ac", 0, 0, {}], ["block35_3_conv", 0, 0, {}]]], "name": "block35_3"}, {"class_name": "Activation", "config": {"activation": "relu", "trainable": true, "name": "block35_3_ac"}, "inbound_nodes": [[["block35_3", 0, 0, {}]]], "name": "block35_3_ac"}, {"class_name": "Conv2D", "config": {"kernel_constraint": null, "kernel_initializer": {"class_name": "VarianceScaling", "config": {"distribution": "uniform", "scale": 1.0, "seed": null, "mode": "fan_avg"}}, "name": "block35/branch_2_1/4", "bias_regularizer": null, "bias_constraint": null, "activation": "linear", "trainable": true, "data_format": "channels_last", "padding": "same", "strides": [1, 1], "dilation_rate": [1, 1], "kernel_regularizer": null, "filters": 32, "bias_initializer": {"class_name": "Zeros", "config": {}}, "use_bias": true, "activity_regularizer": null, "kernel_size": [1, 1]}, "inbound_nodes": [[["block35_3_ac", 0, 0, {}]]], "name": "block35/branch_2_1/4"}, {"class_name": "BatchNormalization", "config": {"beta_constraint": null, "gamma_initializer": {"class_name": "Ones", "config": {}}, "moving_mean_initializer": {"class_name": "Zeros", "config": {}}, "name": "block35/bn_branch_2_1/4", "epsilon": 0.001, "trainable": true, "moving_variance_initializer": {"class_name": "Ones", "config": {}}, "beta_initializer": {"class_name": "Zeros", "config": {}}, "scale": true, "axis": 3, "gamma_constraint": null, "gamma_regularizer": null, "beta_regularizer": null, "momentum": 0.99, "center": true}, "inbound_nodes": [[["block35/branch_2_1/4", 0, 0, {}]]], "name": "block35/bn_branch_2_1/4"}, {"class_name": "Activation", "config": {"activation": "relu", "trainable": true, "name": "block35/branch_2_1/relu/4"}, "inbound_nodes": [[["block35/bn_branch_2_1/4", 0, 0, {}]]], "name": "block35/branch_2_1/relu/4"}, {"class_name": "Conv2D", "config": {"kernel_constraint": null, "kernel_initializer": {"class_name": "VarianceScaling", "config": {"distribution": "uniform", "scale": 1.0, "seed": null, "mode": "fan_avg"}}, "name": "block35/branch_1_1/4", "bias_regularizer": null, "bias_constraint": null, "activation": "linear", "trainable": true, "data_format": "channels_last", "padding": "same", "strides": [1, 1], "dilation_rate": [1, 1], "kernel_regularizer": null, "filters": 32, "bias_initializer": {"class_name": "Zeros", "config": {}}, "use_bias": true, "activity_regularizer": null, "kernel_size": [1, 1]}, "inbound_nodes": [[["block35_3_ac", 0, 0, {}]]], "name": "block35/branch_1_1/4"}, {"class_name": "Conv2D", "config": {"kernel_constraint": null, "kernel_initializer": {"class_name": "VarianceScaling", "config": {"distribution": "uniform", "scale": 1.0, "seed": null, "mode": "fan_avg"}}, "name": "block35/branch_2_2/4", "bias_regularizer": null, "bias_constraint": null, "activation": "linear", "trainable": true, "data_format": "channels_last", "padding": "same", "strides": [1, 1], "dilation_rate": [1, 1], "kernel_regularizer": null, "filters": 48, "bias_initializer": {"class_name": "Zeros", "config": {}}, "use_bias": true, "activity_regularizer": null, "kernel_size": [3, 3]}, "inbound_nodes": [[["block35/branch_2_1/relu/4", 0, 0, {}]]], "name": "block35/branch_2_2/4"}, {"class_name": "BatchNormalization", "config": {"beta_constraint": null, "gamma_initializer": {"class_name": "Ones", "config": {}}, "moving_mean_initializer": {"class_name": "Zeros", "config": {}}, "name": "block35/bn_branch_1_1/4", "epsilon": 0.001, "trainable": true, "moving_variance_initializer": {"class_name": "Ones", "config": {}}, "beta_initializer": {"class_name": "Zeros", "config": {}}, "scale": true, "axis": 3, "gamma_constraint": null, "gamma_regularizer": null, "beta_regularizer": null, "momentum": 0.99, "center": true}, "inbound_nodes": [[["block35/branch_1_1/4", 0, 0, {}]]], "name": "block35/bn_branch_1_1/4"}, {"class_name": "BatchNormalization", "config": {"beta_constraint": null, "gamma_initializer": {"class_name": "Ones", "config": {}}, "moving_mean_initializer": {"class_name": "Zeros", "config": {}}, "name": "block35/bn_branch_2_2/4", "epsilon": 0.001, "trainable": true, "moving_variance_initializer": {"class_name": "Ones", "config": {}}, "beta_initializer": {"class_name": "Zeros", "config": {}}, "scale": true, "axis": 3, "gamma_constraint": null, "gamma_regularizer": null, "beta_regularizer": null, "momentum": 0.99, "center": true}, "inbound_nodes": [[["block35/branch_2_2/4", 0, 0, {}]]], "name": "block35/bn_branch_2_2/4"}, {"class_name": "Activation", "config": {"activation": "relu", "trainable": true, "name": "block35/branch_1_1/relu/4"}, "inbound_nodes": [[["block35/bn_branch_1_1/4", 0, 0, {}]]], "name": "block35/branch_1_1/relu/4"}, {"class_name": "Activation", "config": {"activation": "relu", "trainable": true, "name": "block35/branch_2_2/relu/4"}, "inbound_nodes": [[["block35/bn_branch_2_2/4", 0, 0, {}]]], "name": "block35/branch_2_2/relu/4"}, {"class_name": "Conv2D", "config": {"kernel_constraint": null, "kernel_initializer": {"class_name": "VarianceScaling", "config": {"distribution": "uniform", "scale": 1.0, "seed": null, "mode": "fan_avg"}}, "name": "block35/branch_0/4", "bias_regularizer": null, "bias_constraint": null, "activation": "linear", "trainable": true, "data_format": "channels_last", "padding": "same", "strides": [1, 1], "dilation_rate": [1, 1], "kernel_regularizer": null, "filters": 32, "bias_initializer": {"class_name": "Zeros", "config": {}}, "use_bias": true, "activity_regularizer": null, "kernel_size": [1, 1]}, "inbound_nodes": [[["block35_3_ac", 0, 0, {}]]], "name": "block35/branch_0/4"}, {"class_name": "Conv2D", "config": {"kernel_constraint": null, "kernel_initializer": {"class_name": "VarianceScaling", "config": {"distribution": "uniform", "scale": 1.0, "seed": null, "mode": "fan_avg"}}, "name": "block35/branch_1_2/4", "bias_regularizer": null, "bias_constraint": null, "activation": "linear", "trainable": true, "data_format": "channels_last", "padding": "same", "strides": [1, 1], "dilation_rate": [1, 1], "kernel_regularizer": null, "filters": 32, "bias_initializer": {"class_name": "Zeros", "config": {}}, "use_bias": true, "activity_regularizer": null, "kernel_size": [3, 3]}, "inbound_nodes": [[["block35/branch_1_1/relu/4", 0, 0, {}]]], "name": "block35/branch_1_2/4"}, {"class_name": "Conv2D", "config": {"kernel_constraint": null, "kernel_initializer": {"class_name": "VarianceScaling", "config": {"distribution": "uniform", "scale": 1.0, "seed": null, "mode": "fan_avg"}}, "name": "block35/branch_2_3/4", "bias_regularizer": null, "bias_constraint": null, "activation": "linear", "trainable": true, "data_format": "channels_last", "padding": "same", "strides": [1, 1], "dilation_rate": [1, 1], "kernel_regularizer": null, "filters": 64, "bias_initializer": {"class_name": "Zeros", "config": {}}, "use_bias": true, "activity_regularizer": null, "kernel_size": [3, 3]}, "inbound_nodes": [[["block35/branch_2_2/relu/4", 0, 0, {}]]], "name": "block35/branch_2_3/4"}, {"class_name": "BatchNormalization", "config": {"beta_constraint": null, "gamma_initializer": {"class_name": "Ones", "config": {}}, "moving_mean_initializer": {"class_name": "Zeros", "config": {}}, "name": "block35/bn_branch_0/4", "epsilon": 0.001, "trainable": true, "moving_variance_initializer": {"class_name": "Ones", "config": {}}, "beta_initializer": {"class_name": "Zeros", "config": {}}, "scale": true, "axis": 3, "gamma_constraint": null, "gamma_regularizer": null, "beta_regularizer": null, "momentum": 0.99, "center": true}, "inbound_nodes": [[["block35/branch_0/4", 0, 0, {}]]], "name": "block35/bn_branch_0/4"}, {"class_name": "BatchNormalization", "config": {"beta_constraint": null, "gamma_initializer": {"class_name": "Ones", "config": {}}, "moving_mean_initializer": {"class_name": "Zeros", "config": {}}, "name": "block35/bn_branch_1_2/4", "epsilon": 0.001, "trainable": true, "moving_variance_initializer": {"class_name": "Ones", "config": {}}, "beta_initializer": {"class_name": "Zeros", "config": {}}, "scale": true, "axis": 3, "gamma_constraint": null, "gamma_regularizer": null, "beta_regularizer": null, "momentum": 0.99, "center": true}, "inbound_nodes": [[["block35/branch_1_2/4", 0, 0, {}]]], "name": "block35/bn_branch_1_2/4"}, {"class_name": "BatchNormalization", "config": {"beta_constraint": null, "gamma_initializer": {"class_name": "Ones", "config": {}}, "moving_mean_initializer": {"class_name": "Zeros", "config": {}}, "name": "block35/bn_branch_2_3/4", "epsilon": 0.001, "trainable": true, "moving_variance_initializer": {"class_name": "Ones", "config": {}}, "beta_initializer": {"class_name": "Zeros", "config": {}}, "scale": true, "axis": 3, "gamma_constraint": null, "gamma_regularizer": null, "beta_regularizer": null, "momentum": 0.99, "center": true}, "inbound_nodes": [[["block35/branch_2_3/4", 0, 0, {}]]], "name": "block35/bn_branch_2_3/4"}, {"class_name": "Activation", "config": {"activation": "relu", "trainable": true, "name": "block35/branch_0/relu/4"}, "inbound_nodes": [[["block35/bn_branch_0/4", 0, 0, {}]]], "name": "block35/branch_0/relu/4"}, {"class_name": "Activation", "config": {"activation": "relu", "trainable": true, "name": "block35/branch_1_2/relu/4"}, "inbound_nodes": [[["block35/bn_branch_1_2/4", 0, 0, {}]]], "name": "block35/branch_1_2/relu/4"}, {"class_name": "Activation", "config": {"activation": "relu", "trainable": true, "name": "block35/branch_2_3/relu/4"}, "inbound_nodes": [[["block35/bn_branch_2_3/4", 0, 0, {}]]], "name": "block35/branch_2_3/relu/4"}, {"class_name": "Concatenate", "config": {"trainable": true, "name": "block35_4_mixed", "axis": 3}, "inbound_nodes": [[["block35/branch_0/relu/4", 0, 0, {}], ["block35/branch_1_2/relu/4", 0, 0, {}], ["block35/branch_2_3/relu/4", 0, 0, {}]]], "name": "block35_4_mixed"}, {"class_name": "Conv2D", "config": {"kernel_constraint": null, "kernel_initializer": {"class_name": "VarianceScaling", "config": {"distribution": "uniform", "scale": 1.0, "seed": null, "mode": "fan_avg"}}, "name": "block35_4_conv", "bias_regularizer": null, "bias_constraint": null, "activation": "linear", "trainable": true, "data_format": "channels_last", "padding": "same", "strides": [1, 1], "dilation_rate": [1, 1], "kernel_regularizer": null, "filters": 320, "bias_initializer": {"class_name": "Zeros", "config": {}}, "use_bias": true, "activity_regularizer": null, "kernel_size": [1, 1]}, "inbound_nodes": [[["block35_4_mixed", 0, 0, {}]]], "name": "block35_4_conv"}, {"class_name": "Lambda", "config": {"function": ["c\u0002\u0000\u0000\u0000\u0002\u0000\u0000\u0000\u0003\u0000\u0000\u0000S\u0000\u0000\u0000s\u0014\u0000\u0000\u0000|\u0000\u0000d\u0001\u0000\u0019|\u0000\u0000d\u0002\u0000\u0019|\u0001\u0000\u0014\u0017S(\u0003\u0000\u0000\u0000Ni\u0000\u0000\u0000\u0000i\u0001\u0000\u0000\u0000(\u0000\u0000\u0000\u0000(\u0002\u0000\u0000\u0000t\u0006\u0000\u0000\u0000inputst\u0005\u0000\u0000\u0000scale(\u0000\u0000\u0000\u0000(\u0000\u0000\u0000\u0000s0\u0000\u0000\u0000/ai/sources/keras.ins.facenet/inceptionresnet.pyt\b\u0000\u0000\u0000<lambda>N\u0000\u0000\u0000t\u0000\u0000\u0000\u0000", null, null], "name": "block35_4", "trainable": true, "function_type": "lambda", "arguments": {"scale": 0.17}, "output_shape": [35, 35, 320], "output_shape_type": "raw"}, "inbound_nodes": [[["block35_3_ac", 0, 0, {}], ["block35_4_conv", 0, 0, {}]]], "name": "block35_4"}, {"class_name": "Activation", "config": {"activation": "relu", "trainable": true, "name": "block35_4_ac"}, "inbound_nodes": [[["block35_4", 0, 0, {}]]], "name": "block35_4_ac"}, {"class_name": "Conv2D", "config": {"kernel_constraint": null, "kernel_initializer": {"class_name": "VarianceScaling", "config": {"distribution": "uniform", "scale": 1.0, "seed": null, "mode": "fan_avg"}}, "name": "block35/branch_2_1/5", "bias_regularizer": null, "bias_constraint": null, "activation": "linear", "trainable": true, "data_format": "channels_last", "padding": "same", "strides": [1, 1], "dilation_rate": [1, 1], "kernel_regularizer": null, "filters": 32, "bias_initializer": {"class_name": "Zeros", "config": {}}, "use_bias": true, "activity_regularizer": null, "kernel_size": [1, 1]}, "inbound_nodes": [[["block35_4_ac", 0, 0, {}]]], "name": "block35/branch_2_1/5"}, {"class_name": "BatchNormalization", "config": {"beta_constraint": null, "gamma_initializer": {"class_name": "Ones", "config": {}}, "moving_mean_initializer": {"class_name": "Zeros", "config": {}}, "name": "block35/bn_branch_2_1/5", "epsilon": 0.001, "trainable": true, "moving_variance_initializer": {"class_name": "Ones", "config": {}}, "beta_initializer": {"class_name": "Zeros", "config": {}}, "scale": true, "axis": 3, "gamma_constraint": null, "gamma_regularizer": null, "beta_regularizer": null, "momentum": 0.99, "center": true}, "inbound_nodes": [[["block35/branch_2_1/5", 0, 0, {}]]], "name": "block35/bn_branch_2_1/5"}, {"class_name": "Activation", "config": {"activation": "relu", "trainable": true, "name": "block35/branch_2_1/relu/5"}, "inbound_nodes": [[["block35/bn_branch_2_1/5", 0, 0, {}]]], "name": "block35/branch_2_1/relu/5"}, {"class_name": "Conv2D", "config": {"kernel_constraint": null, "kernel_initializer": {"class_name": "VarianceScaling", "config": {"distribution": "uniform", "scale": 1.0, "seed": null, "mode": "fan_avg"}}, "name": "block35/branch_1_1/5", "bias_regularizer": null, "bias_constraint": null, "activation": "linear", "trainable": true, "data_format": "channels_last", "padding": "same", "strides": [1, 1], "dilation_rate": [1, 1], "kernel_regularizer": null, "filters": 32, "bias_initializer": {"class_name": "Zeros", "config": {}}, "use_bias": true, "activity_regularizer": null, "kernel_size": [1, 1]}, "inbound_nodes": [[["block35_4_ac", 0, 0, {}]]], "name": "block35/branch_1_1/5"}, {"class_name": "Conv2D", "config": {"kernel_constraint": null, "kernel_initializer": {"class_name": "VarianceScaling", "config": {"distribution": "uniform", "scale": 1.0, "seed": null, "mode": "fan_avg"}}, "name": "block35/branch_2_2/5", "bias_regularizer": null, "bias_constraint": null, "activation": "linear", "trainable": true, "data_format": "channels_last", "padding": "same", "strides": [1, 1], "dilation_rate": [1, 1], "kernel_regularizer": null, "filters": 48, "bias_initializer": {"class_name": "Zeros", "config": {}}, "use_bias": true, "activity_regularizer": null, "kernel_size": [3, 3]}, "inbound_nodes": [[["block35/branch_2_1/relu/5", 0, 0, {}]]], "name": "block35/branch_2_2/5"}, {"class_name": "BatchNormalization", "config": {"beta_constraint": null, "gamma_initializer": {"class_name": "Ones", "config": {}}, "moving_mean_initializer": {"class_name": "Zeros", "config": {}}, "name": "block35/bn_branch_1_1/5", "epsilon": 0.001, "trainable": true, "moving_variance_initializer": {"class_name": "Ones", "config": {}}, "beta_initializer": {"class_name": "Zeros", "config": {}}, "scale": true, "axis": 3, "gamma_constraint": null, "gamma_regularizer": null, "beta_regularizer": null, "momentum": 0.99, "center": true}, "inbound_nodes": [[["block35/branch_1_1/5", 0, 0, {}]]], "name": "block35/bn_branch_1_1/5"}, {"class_name": "BatchNormalization", "config": {"beta_constraint": null, "gamma_initializer": {"class_name": "Ones", "config": {}}, "moving_mean_initializer": {"class_name": "Zeros", "config": {}}, "name": "block35/bn_branch_2_2/5", "epsilon": 0.001, "trainable": true, "moving_variance_initializer": {"class_name": "Ones", "config": {}}, "beta_initializer": {"class_name": "Zeros", "config": {}}, "scale": true, "axis": 3, "gamma_constraint": null, "gamma_regularizer": null, "beta_regularizer": null, "momentum": 0.99, "center": true}, "inbound_nodes": [[["block35/branch_2_2/5", 0, 0, {}]]], "name": "block35/bn_branch_2_2/5"}, {"class_name": "Activation", "config": {"activation": "relu", "trainable": true, "name": "block35/branch_1_1/relu/5"}, "inbound_nodes": [[["block35/bn_branch_1_1/5", 0, 0, {}]]], "name": "block35/branch_1_1/relu/5"}, {"class_name": "Activation", "config": {"activation": "relu", "trainable": true, "name": "block35/branch_2_2/relu/5"}, "inbound_nodes": [[["block35/bn_branch_2_2/5", 0, 0, {}]]], "name": "block35/branch_2_2/relu/5"}, {"class_name": "Conv2D", "config": {"kernel_constraint": null, "kernel_initializer": {"class_name": "VarianceScaling", "config": {"distribution": "uniform", "scale": 1.0, "seed": null, "mode": "fan_avg"}}, "name": "block35/branch_0/5", "bias_regularizer": null, "bias_constraint": null, "activation": "linear", "trainable": true, "data_format": "channels_last", "padding": "same", "strides": [1, 1], "dilation_rate": [1, 1], "kernel_regularizer": null, "filters": 32, "bias_initializer": {"class_name": "Zeros", "config": {}}, "use_bias": true, "activity_regularizer": null, "kernel_size": [1, 1]}, "inbound_nodes": [[["block35_4_ac", 0, 0, {}]]], "name": "block35/branch_0/5"}, {"class_name": "Conv2D", "config": {"kernel_constraint": null, "kernel_initializer": {"class_name": "VarianceScaling", "config": {"distribution": "uniform", "scale": 1.0, "seed": null, "mode": "fan_avg"}}, "name": "block35/branch_1_2/5", "bias_regularizer": null, "bias_constraint": null, "activation": "linear", "trainable": true, "data_format": "channels_last", "padding": "same", "strides": [1, 1], "dilation_rate": [1, 1], "kernel_regularizer": null, "filters": 32, "bias_initializer": {"class_name": "Zeros", "config": {}}, "use_bias": true, "activity_regularizer": null, "kernel_size": [3, 3]}, "inbound_nodes": [[["block35/branch_1_1/relu/5", 0, 0, {}]]], "name": "block35/branch_1_2/5"}, {"class_name": "Conv2D", "config": {"kernel_constraint": null, "kernel_initializer": {"class_name": "VarianceScaling", "config": {"distribution": "uniform", "scale": 1.0, "seed": null, "mode": "fan_avg"}}, "name": "block35/branch_2_3/5", "bias_regularizer": null, "bias_constraint": null, "activation": "linear", "trainable": true, "data_format": "channels_last", "padding": "same", "strides": [1, 1], "dilation_rate": [1, 1], "kernel_regularizer": null, "filters": 64, "bias_initializer": {"class_name": "Zeros", "config": {}}, "use_bias": true, "activity_regularizer": null, "kernel_size": [3, 3]}, "inbound_nodes": [[["block35/branch_2_2/relu/5", 0, 0, {}]]], "name": "block35/branch_2_3/5"}, {"class_name": "BatchNormalization", "config": {"beta_constraint": null, "gamma_initializer": {"class_name": "Ones", "config": {}}, "moving_mean_initializer": {"class_name": "Zeros", "config": {}}, "name": "block35/bn_branch_0/5", "epsilon": 0.001, "trainable": true, "moving_variance_initializer": {"class_name": "Ones", "config": {}}, "beta_initializer": {"class_name": "Zeros", "config": {}}, "scale": true, "axis": 3, "gamma_constraint": null, "gamma_regularizer": null, "beta_regularizer": null, "momentum": 0.99, "center": true}, "inbound_nodes": [[["block35/branch_0/5", 0, 0, {}]]], "name": "block35/bn_branch_0/5"}, {"class_name": "BatchNormalization", "config": {"beta_constraint": null, "gamma_initializer": {"class_name": "Ones", "config": {}}, "moving_mean_initializer": {"class_name": "Zeros", "config": {}}, "name": "block35/bn_branch_1_2/5", "epsilon": 0.001, "trainable": true, "moving_variance_initializer": {"class_name": "Ones", "config": {}}, "beta_initializer": {"class_name": "Zeros", "config": {}}, "scale": true, "axis": 3, "gamma_constraint": null, "gamma_regularizer": null, "beta_regularizer": null, "momentum": 0.99, "center": true}, "inbound_nodes": [[["block35/branch_1_2/5", 0, 0, {}]]], "name": "block35/bn_branch_1_2/5"}, {"class_name": "BatchNormalization", "config": {"beta_constraint": null, "gamma_initializer": {"class_name": "Ones", "config": {}}, "moving_mean_initializer": {"class_name": "Zeros", "config": {}}, "name": "block35/bn_branch_2_3/5", "epsilon": 0.001, "trainable": true, "moving_variance_initializer": {"class_name": "Ones", "config": {}}, "beta_initializer": {"class_name": "Zeros", "config": {}}, "scale": true, "axis": 3, "gamma_constraint": null, "gamma_regularizer": null, "beta_regularizer": null, "momentum": 0.99, "center": true}, "inbound_nodes": [[["block35/branch_2_3/5", 0, 0, {}]]], "name": "block35/bn_branch_2_3/5"}, {"class_name": "Activation", "config": {"activation": "relu", "trainable": true, "name": "block35/branch_0/relu/5"}, "inbound_nodes": [[["block35/bn_branch_0/5", 0, 0, {}]]], "name": "block35/branch_0/relu/5"}, {"class_name": "Activation", "config": {"activation": "relu", "trainable": true, "name": "block35/branch_1_2/relu/5"}, "inbound_nodes": [[["block35/bn_branch_1_2/5", 0, 0, {}]]], "name": "block35/branch_1_2/relu/5"}, {"class_name": "Activation", "config": {"activation": "relu", "trainable": true, "name": "block35/branch_2_3/relu/5"}, "inbound_nodes": [[["block35/bn_branch_2_3/5", 0, 0, {}]]], "name": "block35/branch_2_3/relu/5"}, {"class_name": "Concatenate", "config": {"trainable": true, "name": "block35_5_mixed", "axis": 3}, "inbound_nodes": [[["block35/branch_0/relu/5", 0, 0, {}], ["block35/branch_1_2/relu/5", 0, 0, {}], ["block35/branch_2_3/relu/5", 0, 0, {}]]], "name": "block35_5_mixed"}, {"class_name": "Conv2D", "config": {"kernel_constraint": null, "kernel_initializer": {"class_name": "VarianceScaling", "config": {"distribution": "uniform", "scale": 1.0, "seed": null, "mode": "fan_avg"}}, "name": "block35_5_conv", "bias_regularizer": null, "bias_constraint": null, "activation": "linear", "trainable": true, "data_format": "channels_last", "padding": "same", "strides": [1, 1], "dilation_rate": [1, 1], "kernel_regularizer": null, "filters": 320, "bias_initializer": {"class_name": "Zeros", "config": {}}, "use_bias": true, "activity_regularizer": null, "kernel_size": [1, 1]}, "inbound_nodes": [[["block35_5_mixed", 0, 0, {}]]], "name": "block35_5_conv"}, {"class_name": "Lambda", "config": {"function": ["c\u0002\u0000\u0000\u0000\u0002\u0000\u0000\u0000\u0003\u0000\u0000\u0000S\u0000\u0000\u0000s\u0014\u0000\u0000\u0000|\u0000\u0000d\u0001\u0000\u0019|\u0000\u0000d\u0002\u0000\u0019|\u0001\u0000\u0014\u0017S(\u0003\u0000\u0000\u0000Ni\u0000\u0000\u0000\u0000i\u0001\u0000\u0000\u0000(\u0000\u0000\u0000\u0000(\u0002\u0000\u0000\u0000t\u0006\u0000\u0000\u0000inputst\u0005\u0000\u0000\u0000scale(\u0000\u0000\u0000\u0000(\u0000\u0000\u0000\u0000s0\u0000\u0000\u0000/ai/sources/keras.ins.facenet/inceptionresnet.pyt\b\u0000\u0000\u0000<lambda>N\u0000\u0000\u0000t\u0000\u0000\u0000\u0000", null, null], "name": "block35_5", "trainable": true, "function_type": "lambda", "arguments": {"scale": 0.17}, "output_shape": [35, 35, 320], "output_shape_type": "raw"}, "inbound_nodes": [[["block35_4_ac", 0, 0, {}], ["block35_5_conv", 0, 0, {}]]], "name": "block35_5"}, {"class_name": "Activation", "config": {"activation": "relu", "trainable": true, "name": "block35_5_ac"}, "inbound_nodes": [[["block35_5", 0, 0, {}]]], "name": "block35_5_ac"}, {"class_name": "Conv2D", "config": {"kernel_constraint": null, "kernel_initializer": {"class_name": "VarianceScaling", "config": {"distribution": "uniform", "scale": 1.0, "seed": null, "mode": "fan_avg"}}, "name": "block35/branch_2_1/6", "bias_regularizer": null, "bias_constraint": null, "activation": "linear", "trainable": true, "data_format": "channels_last", "padding": "same", "strides": [1, 1], "dilation_rate": [1, 1], "kernel_regularizer": null, "filters": 32, "bias_initializer": {"class_name": "Zeros", "config": {}}, "use_bias": true, "activity_regularizer": null, "kernel_size": [1, 1]}, "inbound_nodes": [[["block35_5_ac", 0, 0, {}]]], "name": "block35/branch_2_1/6"}, {"class_name": "BatchNormalization", "config": {"beta_constraint": null, "gamma_initializer": {"class_name": "Ones", "config": {}}, "moving_mean_initializer": {"class_name": "Zeros", "config": {}}, "name": "block35/bn_branch_2_1/6", "epsilon": 0.001, "trainable": true, "moving_variance_initializer": {"class_name": "Ones", "config": {}}, "beta_initializer": {"class_name": "Zeros", "config": {}}, "scale": true, "axis": 3, "gamma_constraint": null, "gamma_regularizer": null, "beta_regularizer": null, "momentum": 0.99, "center": true}, "inbound_nodes": [[["block35/branch_2_1/6", 0, 0, {}]]], "name": "block35/bn_branch_2_1/6"}, {"class_name": "Activation", "config": {"activation": "relu", "trainable": true, "name": "block35/branch_2_1/relu/6"}, "inbound_nodes": [[["block35/bn_branch_2_1/6", 0, 0, {}]]], "name": "block35/branch_2_1/relu/6"}, {"class_name": "Conv2D", "config": {"kernel_constraint": null, "kernel_initializer": {"class_name": "VarianceScaling", "config": {"distribution": "uniform", "scale": 1.0, "seed": null, "mode": "fan_avg"}}, "name": "block35/branch_1_1/6", "bias_regularizer": null, "bias_constraint": null, "activation": "linear", "trainable": true, "data_format": "channels_last", "padding": "same", "strides": [1, 1], "dilation_rate": [1, 1], "kernel_regularizer": null, "filters": 32, "bias_initializer": {"class_name": "Zeros", "config": {}}, "use_bias": true, "activity_regularizer": null, "kernel_size": [1, 1]}, "inbound_nodes": [[["block35_5_ac", 0, 0, {}]]], "name": "block35/branch_1_1/6"}, {"class_name": "Conv2D", "config": {"kernel_constraint": null, "kernel_initializer": {"class_name": "VarianceScaling", "config": {"distribution": "uniform", "scale": 1.0, "seed": null, "mode": "fan_avg"}}, "name": "block35/branch_2_2/6", "bias_regularizer": null, "bias_constraint": null, "activation": "linear", "trainable": true, "data_format": "channels_last", "padding": "same", "strides": [1, 1], "dilation_rate": [1, 1], "kernel_regularizer": null, "filters": 48, "bias_initializer": {"class_name": "Zeros", "config": {}}, "use_bias": true, "activity_regularizer": null, "kernel_size": [3, 3]}, "inbound_nodes": [[["block35/branch_2_1/relu/6", 0, 0, {}]]], "name": "block35/branch_2_2/6"}, {"class_name": "BatchNormalization", "config": {"beta_constraint": null, "gamma_initializer": {"class_name": "Ones", "config": {}}, "moving_mean_initializer": {"class_name": "Zeros", "config": {}}, "name": "block35/bn_branch_1_1/6", "epsilon": 0.001, "trainable": true, "moving_variance_initializer": {"class_name": "Ones", "config": {}}, "beta_initializer": {"class_name": "Zeros", "config": {}}, "scale": true, "axis": 3, "gamma_constraint": null, "gamma_regularizer": null, "beta_regularizer": null, "momentum": 0.99, "center": true}, "inbound_nodes": [[["block35/branch_1_1/6", 0, 0, {}]]], "name": "block35/bn_branch_1_1/6"}, {"class_name": "BatchNormalization", "config": {"beta_constraint": null, "gamma_initializer": {"class_name": "Ones", "config": {}}, "moving_mean_initializer": {"class_name": "Zeros", "config": {}}, "name": "block35/bn_branch_2_2/6", "epsilon": 0.001, "trainable": true, "moving_variance_initializer": {"class_name": "Ones", "config": {}}, "beta_initializer": {"class_name": "Zeros", "config": {}}, "scale": true, "axis": 3, "gamma_constraint": null, "gamma_regularizer": null, "beta_regularizer": null, "momentum": 0.99, "center": true}, "inbound_nodes": [[["block35/branch_2_2/6", 0, 0, {}]]], "name": "block35/bn_branch_2_2/6"}, {"class_name": "Activation", "config": {"activation": "relu", "trainable": true, "name": "block35/branch_1_1/relu/6"}, "inbound_nodes": [[["block35/bn_branch_1_1/6", 0, 0, {}]]], "name": "block35/branch_1_1/relu/6"}, {"class_name": "Activation", "config": {"activation": "relu", "trainable": true, "name": "block35/branch_2_2/relu/6"}, "inbound_nodes": [[["block35/bn_branch_2_2/6", 0, 0, {}]]], "name": "block35/branch_2_2/relu/6"}, {"class_name": "Conv2D", "config": {"kernel_constraint": null, "kernel_initializer": {"class_name": "VarianceScaling", "config": {"distribution": "uniform", "scale": 1.0, "seed": null, "mode": "fan_avg"}}, "name": "block35/branch_0/6", "bias_regularizer": null, "bias_constraint": null, "activation": "linear", "trainable": true, "data_format": "channels_last", "padding": "same", "strides": [1, 1], "dilation_rate": [1, 1], "kernel_regularizer": null, "filters": 32, "bias_initializer": {"class_name": "Zeros", "config": {}}, "use_bias": true, "activity_regularizer": null, "kernel_size": [1, 1]}, "inbound_nodes": [[["block35_5_ac", 0, 0, {}]]], "name": "block35/branch_0/6"}, {"class_name": "Conv2D", "config": {"kernel_constraint": null, "kernel_initializer": {"class_name": "VarianceScaling", "config": {"distribution": "uniform", "scale": 1.0, "seed": null, "mode": "fan_avg"}}, "name": "block35/branch_1_2/6", "bias_regularizer": null, "bias_constraint": null, "activation": "linear", "trainable": true, "data_format": "channels_last", "padding": "same", "strides": [1, 1], "dilation_rate": [1, 1], "kernel_regularizer": null, "filters": 32, "bias_initializer": {"class_name": "Zeros", "config": {}}, "use_bias": true, "activity_regularizer": null, "kernel_size": [3, 3]}, "inbound_nodes": [[["block35/branch_1_1/relu/6", 0, 0, {}]]], "name": "block35/branch_1_2/6"}, {"class_name": "Conv2D", "config": {"kernel_constraint": null, "kernel_initializer": {"class_name": "VarianceScaling", "config": {"distribution": "uniform", "scale": 1.0, "seed": null, "mode": "fan_avg"}}, "name": "block35/branch_2_3/6", "bias_regularizer": null, "bias_constraint": null, "activation": "linear", "trainable": true, "data_format": "channels_last", "padding": "same", "strides": [1, 1], "dilation_rate": [1, 1], "kernel_regularizer": null, "filters": 64, "bias_initializer": {"class_name": "Zeros", "config": {}}, "use_bias": true, "activity_regularizer": null, "kernel_size": [3, 3]}, "inbound_nodes": [[["block35/branch_2_2/relu/6", 0, 0, {}]]], "name": "block35/branch_2_3/6"}, {"class_name": "BatchNormalization", "config": {"beta_constraint": null, "gamma_initializer": {"class_name": "Ones", "config": {}}, "moving_mean_initializer": {"class_name": "Zeros", "config": {}}, "name": "block35/bn_branch_0/6", "epsilon": 0.001, "trainable": true, "moving_variance_initializer": {"class_name": "Ones", "config": {}}, "beta_initializer": {"class_name": "Zeros", "config": {}}, "scale": true, "axis": 3, "gamma_constraint": null, "gamma_regularizer": null, "beta_regularizer": null, "momentum": 0.99, "center": true}, "inbound_nodes": [[["block35/branch_0/6", 0, 0, {}]]], "name": "block35/bn_branch_0/6"}, {"class_name": "BatchNormalization", "config": {"beta_constraint": null, "gamma_initializer": {"class_name": "Ones", "config": {}}, "moving_mean_initializer": {"class_name": "Zeros", "config": {}}, "name": "block35/bn_branch_1_2/6", "epsilon": 0.001, "trainable": true, "moving_variance_initializer": {"class_name": "Ones", "config": {}}, "beta_initializer": {"class_name": "Zeros", "config": {}}, "scale": true, "axis": 3, "gamma_constraint": null, "gamma_regularizer": null, "beta_regularizer": null, "momentum": 0.99, "center": true}, "inbound_nodes": [[["block35/branch_1_2/6", 0, 0, {}]]], "name": "block35/bn_branch_1_2/6"}, {"class_name": "BatchNormalization", "config": {"beta_constraint": null, "gamma_initializer": {"class_name": "Ones", "config": {}}, "moving_mean_initializer": {"class_name": "Zeros", "config": {}}, "name": "block35/bn_branch_2_3/6", "epsilon": 0.001, "trainable": true, "moving_variance_initializer": {"class_name": "Ones", "config": {}}, "beta_initializer": {"class_name": "Zeros", "config": {}}, "scale": true, "axis": 3, "gamma_constraint": null, "gamma_regularizer": null, "beta_regularizer": null, "momentum": 0.99, "center": true}, "inbound_nodes": [[["block35/branch_2_3/6", 0, 0, {}]]], "name": "block35/bn_branch_2_3/6"}, {"class_name": "Activation", "config": {"activation": "relu", "trainable": true, "name": "block35/branch_0/relu/6"}, "inbound_nodes": [[["block35/bn_branch_0/6", 0, 0, {}]]], "name": "block35/branch_0/relu/6"}, {"class_name": "Activation", "config": {"activation": "relu", "trainable": true, "name": "block35/branch_1_2/relu/6"}, "inbound_nodes": [[["block35/bn_branch_1_2/6", 0, 0, {}]]], "name": "block35/branch_1_2/relu/6"}, {"class_name": "Activation", "config": {"activation": "relu", "trainable": true, "name": "block35/branch_2_3/relu/6"}, "inbound_nodes": [[["block35/bn_branch_2_3/6", 0, 0, {}]]], "name": "block35/branch_2_3/relu/6"}, {"class_name": "Concatenate", "config": {"trainable": true, "name": "block35_6_mixed", "axis": 3}, "inbound_nodes": [[["block35/branch_0/relu/6", 0, 0, {}], ["block35/branch_1_2/relu/6", 0, 0, {}], ["block35/branch_2_3/relu/6", 0, 0, {}]]], "name": "block35_6_mixed"}, {"class_name": "Conv2D", "config": {"kernel_constraint": null, "kernel_initializer": {"class_name": "VarianceScaling", "config": {"distribution": "uniform", "scale": 1.0, "seed": null, "mode": "fan_avg"}}, "name": "block35_6_conv", "bias_regularizer": null, "bias_constraint": null, "activation": "linear", "trainable": true, "data_format": "channels_last", "padding": "same", "strides": [1, 1], "dilation_rate": [1, 1], "kernel_regularizer": null, "filters": 320, "bias_initializer": {"class_name": "Zeros", "config": {}}, "use_bias": true, "activity_regularizer": null, "kernel_size": [1, 1]}, "inbound_nodes": [[["block35_6_mixed", 0, 0, {}]]], "name": "block35_6_conv"}, {"class_name": "Lambda", "config": {"function": ["c\u0002\u0000\u0000\u0000\u0002\u0000\u0000\u0000\u0003\u0000\u0000\u0000S\u0000\u0000\u0000s\u0014\u0000\u0000\u0000|\u0000\u0000d\u0001\u0000\u0019|\u0000\u0000d\u0002\u0000\u0019|\u0001\u0000\u0014\u0017S(\u0003\u0000\u0000\u0000Ni\u0000\u0000\u0000\u0000i\u0001\u0000\u0000\u0000(\u0000\u0000\u0000\u0000(\u0002\u0000\u0000\u0000t\u0006\u0000\u0000\u0000inputst\u0005\u0000\u0000\u0000scale(\u0000\u0000\u0000\u0000(\u0000\u0000\u0000\u0000s0\u0000\u0000\u0000/ai/sources/keras.ins.facenet/inceptionresnet.pyt\b\u0000\u0000\u0000<lambda>N\u0000\u0000\u0000t\u0000\u0000\u0000\u0000", null, null], "name": "block35_6", "trainable": true, "function_type": "lambda", "arguments": {"scale": 0.17}, "output_shape": [35, 35, 320], "output_shape_type": "raw"}, "inbound_nodes": [[["block35_5_ac", 0, 0, {}], ["block35_6_conv", 0, 0, {}]]], "name": "block35_6"}, {"class_name": "Activation", "config": {"activation": "relu", "trainable": true, "name": "block35_6_ac"}, "inbound_nodes": [[["block35_6", 0, 0, {}]]], "name": "block35_6_ac"}, {"class_name": "Conv2D", "config": {"kernel_constraint": null, "kernel_initializer": {"class_name": "VarianceScaling", "config": {"distribution": "uniform", "scale": 1.0, "seed": null, "mode": "fan_avg"}}, "name": "block35/branch_2_1/7", "bias_regularizer": null, "bias_constraint": null, "activation": "linear", "trainable": true, "data_format": "channels_last", "padding": "same", "strides": [1, 1], "dilation_rate": [1, 1], "kernel_regularizer": null, "filters": 32, "bias_initializer": {"class_name": "Zeros", "config": {}}, "use_bias": true, "activity_regularizer": null, "kernel_size": [1, 1]}, "inbound_nodes": [[["block35_6_ac", 0, 0, {}]]], "name": "block35/branch_2_1/7"}, {"class_name": "BatchNormalization", "config": {"beta_constraint": null, "gamma_initializer": {"class_name": "Ones", "config": {}}, "moving_mean_initializer": {"class_name": "Zeros", "config": {}}, "name": "block35/bn_branch_2_1/7", "epsilon": 0.001, "trainable": true, "moving_variance_initializer": {"class_name": "Ones", "config": {}}, "beta_initializer": {"class_name": "Zeros", "config": {}}, "scale": true, "axis": 3, "gamma_constraint": null, "gamma_regularizer": null, "beta_regularizer": null, "momentum": 0.99, "center": true}, "inbound_nodes": [[["block35/branch_2_1/7", 0, 0, {}]]], "name": "block35/bn_branch_2_1/7"}, {"class_name": "Activation", "config": {"activation": "relu", "trainable": true, "name": "block35/branch_2_1/relu/7"}, "inbound_nodes": [[["block35/bn_branch_2_1/7", 0, 0, {}]]], "name": "block35/branch_2_1/relu/7"}, {"class_name": "Conv2D", "config": {"kernel_constraint": null, "kernel_initializer": {"class_name": "VarianceScaling", "config": {"distribution": "uniform", "scale": 1.0, "seed": null, "mode": "fan_avg"}}, "name": "block35/branch_1_1/7", "bias_regularizer": null, "bias_constraint": null, "activation": "linear", "trainable": true, "data_format": "channels_last", "padding": "same", "strides": [1, 1], "dilation_rate": [1, 1], "kernel_regularizer": null, "filters": 32, "bias_initializer": {"class_name": "Zeros", "config": {}}, "use_bias": true, "activity_regularizer": null, "kernel_size": [1, 1]}, "inbound_nodes": [[["block35_6_ac", 0, 0, {}]]], "name": "block35/branch_1_1/7"}, {"class_name": "Conv2D", "config": {"kernel_constraint": null, "kernel_initializer": {"class_name": "VarianceScaling", "config": {"distribution": "uniform", "scale": 1.0, "seed": null, "mode": "fan_avg"}}, "name": "block35/branch_2_2/7", "bias_regularizer": null, "bias_constraint": null, "activation": "linear", "trainable": true, "data_format": "channels_last", "padding": "same", "strides": [1, 1], "dilation_rate": [1, 1], "kernel_regularizer": null, "filters": 48, "bias_initializer": {"class_name": "Zeros", "config": {}}, "use_bias": true, "activity_regularizer": null, "kernel_size": [3, 3]}, "inbound_nodes": [[["block35/branch_2_1/relu/7", 0, 0, {}]]], "name": "block35/branch_2_2/7"}, {"class_name": "BatchNormalization", "config": {"beta_constraint": null, "gamma_initializer": {"class_name": "Ones", "config": {}}, "moving_mean_initializer": {"class_name": "Zeros", "config": {}}, "name": "block35/bn_branch_1_1/7", "epsilon": 0.001, "trainable": true, "moving_variance_initializer": {"class_name": "Ones", "config": {}}, "beta_initializer": {"class_name": "Zeros", "config": {}}, "scale": true, "axis": 3, "gamma_constraint": null, "gamma_regularizer": null, "beta_regularizer": null, "momentum": 0.99, "center": true}, "inbound_nodes": [[["block35/branch_1_1/7", 0, 0, {}]]], "name": "block35/bn_branch_1_1/7"}, {"class_name": "BatchNormalization", "config": {"beta_constraint": null, "gamma_initializer": {"class_name": "Ones", "config": {}}, "moving_mean_initializer": {"class_name": "Zeros", "config": {}}, "name": "block35/bn_branch_2_2/7", "epsilon": 0.001, "trainable": true, "moving_variance_initializer": {"class_name": "Ones", "config": {}}, "beta_initializer": {"class_name": "Zeros", "config": {}}, "scale": true, "axis": 3, "gamma_constraint": null, "gamma_regularizer": null, "beta_regularizer": null, "momentum": 0.99, "center": true}, "inbound_nodes": [[["block35/branch_2_2/7", 0, 0, {}]]], "name": "block35/bn_branch_2_2/7"}, {"class_name": "Activation", "config": {"activation": "relu", "trainable": true, "name": "block35/branch_1_1/relu/7"}, "inbound_nodes": [[["block35/bn_branch_1_1/7", 0, 0, {}]]], "name": "block35/branch_1_1/relu/7"}, {"class_name": "Activation", "config": {"activation": "relu", "trainable": true, "name": "block35/branch_2_2/relu/7"}, "inbound_nodes": [[["block35/bn_branch_2_2/7", 0, 0, {}]]], "name": "block35/branch_2_2/relu/7"}, {"class_name": "Conv2D", "config": {"kernel_constraint": null, "kernel_initializer": {"class_name": "VarianceScaling", "config": {"distribution": "uniform", "scale": 1.0, "seed": null, "mode": "fan_avg"}}, "name": "block35/branch_0/7", "bias_regularizer": null, "bias_constraint": null, "activation": "linear", "trainable": true, "data_format": "channels_last", "padding": "same", "strides": [1, 1], "dilation_rate": [1, 1], "kernel_regularizer": null, "filters": 32, "bias_initializer": {"class_name": "Zeros", "config": {}}, "use_bias": true, "activity_regularizer": null, "kernel_size": [1, 1]}, "inbound_nodes": [[["block35_6_ac", 0, 0, {}]]], "name": "block35/branch_0/7"}, {"class_name": "Conv2D", "config": {"kernel_constraint": null, "kernel_initializer": {"class_name": "VarianceScaling", "config": {"distribution": "uniform", "scale": 1.0, "seed": null, "mode": "fan_avg"}}, "name": "block35/branch_1_2/7", "bias_regularizer": null, "bias_constraint": null, "activation": "linear", "trainable": true, "data_format": "channels_last", "padding": "same", "strides": [1, 1], "dilation_rate": [1, 1], "kernel_regularizer": null, "filters": 32, "bias_initializer": {"class_name": "Zeros", "config": {}}, "use_bias": true, "activity_regularizer": null, "kernel_size": [3, 3]}, "inbound_nodes": [[["block35/branch_1_1/relu/7", 0, 0, {}]]], "name": "block35/branch_1_2/7"}, {"class_name": "Conv2D", "config": {"kernel_constraint": null, "kernel_initializer": {"class_name": "VarianceScaling", "config": {"distribution": "uniform", "scale": 1.0, "seed": null, "mode": "fan_avg"}}, "name": "block35/branch_2_3/7", "bias_regularizer": null, "bias_constraint": null, "activation": "linear", "trainable": true, "data_format": "channels_last", "padding": "same", "strides": [1, 1], "dilation_rate": [1, 1], "kernel_regularizer": null, "filters": 64, "bias_initializer": {"class_name": "Zeros", "config": {}}, "use_bias": true, "activity_regularizer": null, "kernel_size": [3, 3]}, "inbound_nodes": [[["block35/branch_2_2/relu/7", 0, 0, {}]]], "name": "block35/branch_2_3/7"}, {"class_name": "BatchNormalization", "config": {"beta_constraint": null, "gamma_initializer": {"class_name": "Ones", "config": {}}, "moving_mean_initializer": {"class_name": "Zeros", "config": {}}, "name": "block35/bn_branch_0/7", "epsilon": 0.001, "trainable": true, "moving_variance_initializer": {"class_name": "Ones", "config": {}}, "beta_initializer": {"class_name": "Zeros", "config": {}}, "scale": true, "axis": 3, "gamma_constraint": null, "gamma_regularizer": null, "beta_regularizer": null, "momentum": 0.99, "center": true}, "inbound_nodes": [[["block35/branch_0/7", 0, 0, {}]]], "name": "block35/bn_branch_0/7"}, {"class_name": "BatchNormalization", "config": {"beta_constraint": null, "gamma_initializer": {"class_name": "Ones", "config": {}}, "moving_mean_initializer": {"class_name": "Zeros", "config": {}}, "name": "block35/bn_branch_1_2/7", "epsilon": 0.001, "trainable": true, "moving_variance_initializer": {"class_name": "Ones", "config": {}}, "beta_initializer": {"class_name": "Zeros", "config": {}}, "scale": true, "axis": 3, "gamma_constraint": null, "gamma_regularizer": null, "beta_regularizer": null, "momentum": 0.99, "center": true}, "inbound_nodes": [[["block35/branch_1_2/7", 0, 0, {}]]], "name": "block35/bn_branch_1_2/7"}, {"class_name": "BatchNormalization", "config": {"beta_constraint": null, "gamma_initializer": {"class_name": "Ones", "config": {}}, "moving_mean_initializer": {"class_name": "Zeros", "config": {}}, "name": "block35/bn_branch_2_3/7", "epsilon": 0.001, "trainable": true, "moving_variance_initializer": {"class_name": "Ones", "config": {}}, "beta_initializer": {"class_name": "Zeros", "config": {}}, "scale": true, "axis": 3, "gamma_constraint": null, "gamma_regularizer": null, "beta_regularizer": null, "momentum": 0.99, "center": true}, "inbound_nodes": [[["block35/branch_2_3/7", 0, 0, {}]]], "name": "block35/bn_branch_2_3/7"}, {"class_name": "Activation", "config": {"activation": "relu", "trainable": true, "name": "block35/branch_0/relu/7"}, "inbound_nodes": [[["block35/bn_branch_0/7", 0, 0, {}]]], "name": "block35/branch_0/relu/7"}, {"class_name": "Activation", "config": {"activation": "relu", "trainable": true, "name": "block35/branch_1_2/relu/7"}, "inbound_nodes": [[["block35/bn_branch_1_2/7", 0, 0, {}]]], "name": "block35/branch_1_2/relu/7"}, {"class_name": "Activation", "config": {"activation": "relu", "trainable": true, "name": "block35/branch_2_3/relu/7"}, "inbound_nodes": [[["block35/bn_branch_2_3/7", 0, 0, {}]]], "name": "block35/branch_2_3/relu/7"}, {"class_name": "Concatenate", "config": {"trainable": true, "name": "block35_7_mixed", "axis": 3}, "inbound_nodes": [[["block35/branch_0/relu/7", 0, 0, {}], ["block35/branch_1_2/relu/7", 0, 0, {}], ["block35/branch_2_3/relu/7", 0, 0, {}]]], "name": "block35_7_mixed"}, {"class_name": "Conv2D", "config": {"kernel_constraint": null, "kernel_initializer": {"class_name": "VarianceScaling", "config": {"distribution": "uniform", "scale": 1.0, "seed": null, "mode": "fan_avg"}}, "name": "block35_7_conv", "bias_regularizer": null, "bias_constraint": null, "activation": "linear", "trainable": true, "data_format": "channels_last", "padding": "same", "strides": [1, 1], "dilation_rate": [1, 1], "kernel_regularizer": null, "filters": 320, "bias_initializer": {"class_name": "Zeros", "config": {}}, "use_bias": true, "activity_regularizer": null, "kernel_size": [1, 1]}, "inbound_nodes": [[["block35_7_mixed", 0, 0, {}]]], "name": "block35_7_conv"}, {"class_name": "Lambda", "config": {"function": ["c\u0002\u0000\u0000\u0000\u0002\u0000\u0000\u0000\u0003\u0000\u0000\u0000S\u0000\u0000\u0000s\u0014\u0000\u0000\u0000|\u0000\u0000d\u0001\u0000\u0019|\u0000\u0000d\u0002\u0000\u0019|\u0001\u0000\u0014\u0017S(\u0003\u0000\u0000\u0000Ni\u0000\u0000\u0000\u0000i\u0001\u0000\u0000\u0000(\u0000\u0000\u0000\u0000(\u0002\u0000\u0000\u0000t\u0006\u0000\u0000\u0000inputst\u0005\u0000\u0000\u0000scale(\u0000\u0000\u0000\u0000(\u0000\u0000\u0000\u0000s0\u0000\u0000\u0000/ai/sources/keras.ins.facenet/inceptionresnet.pyt\b\u0000\u0000\u0000<lambda>N\u0000\u0000\u0000t\u0000\u0000\u0000\u0000", null, null], "name": "block35_7", "trainable": true, "function_type": "lambda", "arguments": {"scale": 0.17}, "output_shape": [35, 35, 320], "output_shape_type": "raw"}, "inbound_nodes": [[["block35_6_ac", 0, 0, {}], ["block35_7_conv", 0, 0, {}]]], "name": "block35_7"}, {"class_name": "Activation", "config": {"activation": "relu", "trainable": true, "name": "block35_7_ac"}, "inbound_nodes": [[["block35_7", 0, 0, {}]]], "name": "block35_7_ac"}, {"class_name": "Conv2D", "config": {"kernel_constraint": null, "kernel_initializer": {"class_name": "VarianceScaling", "config": {"distribution": "uniform", "scale": 1.0, "seed": null, "mode": "fan_avg"}}, "name": "block35/branch_2_1/8", "bias_regularizer": null, "bias_constraint": null, "activation": "linear", "trainable": true, "data_format": "channels_last", "padding": "same", "strides": [1, 1], "dilation_rate": [1, 1], "kernel_regularizer": null, "filters": 32, "bias_initializer": {"class_name": "Zeros", "config": {}}, "use_bias": true, "activity_regularizer": null, "kernel_size": [1, 1]}, "inbound_nodes": [[["block35_7_ac", 0, 0, {}]]], "name": "block35/branch_2_1/8"}, {"class_name": "BatchNormalization", "config": {"beta_constraint": null, "gamma_initializer": {"class_name": "Ones", "config": {}}, "moving_mean_initializer": {"class_name": "Zeros", "config": {}}, "name": "block35/bn_branch_2_1/8", "epsilon": 0.001, "trainable": true, "moving_variance_initializer": {"class_name": "Ones", "config": {}}, "beta_initializer": {"class_name": "Zeros", "config": {}}, "scale": true, "axis": 3, "gamma_constraint": null, "gamma_regularizer": null, "beta_regularizer": null, "momentum": 0.99, "center": true}, "inbound_nodes": [[["block35/branch_2_1/8", 0, 0, {}]]], "name": "block35/bn_branch_2_1/8"}, {"class_name": "Activation", "config": {"activation": "relu", "trainable": true, "name": "block35/branch_2_1/relu/8"}, "inbound_nodes": [[["block35/bn_branch_2_1/8", 0, 0, {}]]], "name": "block35/branch_2_1/relu/8"}, {"class_name": "Conv2D", "config": {"kernel_constraint": null, "kernel_initializer": {"class_name": "VarianceScaling", "config": {"distribution": "uniform", "scale": 1.0, "seed": null, "mode": "fan_avg"}}, "name": "block35/branch_1_1/8", "bias_regularizer": null, "bias_constraint": null, "activation": "linear", "trainable": true, "data_format": "channels_last", "padding": "same", "strides": [1, 1], "dilation_rate": [1, 1], "kernel_regularizer": null, "filters": 32, "bias_initializer": {"class_name": "Zeros", "config": {}}, "use_bias": true, "activity_regularizer": null, "kernel_size": [1, 1]}, "inbound_nodes": [[["block35_7_ac", 0, 0, {}]]], "name": "block35/branch_1_1/8"}, {"class_name": "Conv2D", "config": {"kernel_constraint": null, "kernel_initializer": {"class_name": "VarianceScaling", "config": {"distribution": "uniform", "scale": 1.0, "seed": null, "mode": "fan_avg"}}, "name": "block35/branch_2_2/8", "bias_regularizer": null, "bias_constraint": null, "activation": "linear", "trainable": true, "data_format": "channels_last", "padding": "same", "strides": [1, 1], "dilation_rate": [1, 1], "kernel_regularizer": null, "filters": 48, "bias_initializer": {"class_name": "Zeros", "config": {}}, "use_bias": true, "activity_regularizer": null, "kernel_size": [3, 3]}, "inbound_nodes": [[["block35/branch_2_1/relu/8", 0, 0, {}]]], "name": "block35/branch_2_2/8"}, {"class_name": "BatchNormalization", "config": {"beta_constraint": null, "gamma_initializer": {"class_name": "Ones", "config": {}}, "moving_mean_initializer": {"class_name": "Zeros", "config": {}}, "name": "block35/bn_branch_1_1/8", "epsilon": 0.001, "trainable": true, "moving_variance_initializer": {"class_name": "Ones", "config": {}}, "beta_initializer": {"class_name": "Zeros", "config": {}}, "scale": true, "axis": 3, "gamma_constraint": null, "gamma_regularizer": null, "beta_regularizer": null, "momentum": 0.99, "center": true}, "inbound_nodes": [[["block35/branch_1_1/8", 0, 0, {}]]], "name": "block35/bn_branch_1_1/8"}, {"class_name": "BatchNormalization", "config": {"beta_constraint": null, "gamma_initializer": {"class_name": "Ones", "config": {}}, "moving_mean_initializer": {"class_name": "Zeros", "config": {}}, "name": "block35/bn_branch_2_2/8", "epsilon": 0.001, "trainable": true, "moving_variance_initializer": {"class_name": "Ones", "config": {}}, "beta_initializer": {"class_name": "Zeros", "config": {}}, "scale": true, "axis": 3, "gamma_constraint": null, "gamma_regularizer": null, "beta_regularizer": null, "momentum": 0.99, "center": true}, "inbound_nodes": [[["block35/branch_2_2/8", 0, 0, {}]]], "name": "block35/bn_branch_2_2/8"}, {"class_name": "Activation", "config": {"activation": "relu", "trainable": true, "name": "block35/branch_1_1/relu/8"}, "inbound_nodes": [[["block35/bn_branch_1_1/8", 0, 0, {}]]], "name": "block35/branch_1_1/relu/8"}, {"class_name": "Activation", "config": {"activation": "relu", "trainable": true, "name": "block35/branch_2_2/relu/8"}, "inbound_nodes": [[["block35/bn_branch_2_2/8", 0, 0, {}]]], "name": "block35/branch_2_2/relu/8"}, {"class_name": "Conv2D", "config": {"kernel_constraint": null, "kernel_initializer": {"class_name": "VarianceScaling", "config": {"distribution": "uniform", "scale": 1.0, "seed": null, "mode": "fan_avg"}}, "name": "block35/branch_0/8", "bias_regularizer": null, "bias_constraint": null, "activation": "linear", "trainable": true, "data_format": "channels_last", "padding": "same", "strides": [1, 1], "dilation_rate": [1, 1], "kernel_regularizer": null, "filters": 32, "bias_initializer": {"class_name": "Zeros", "config": {}}, "use_bias": true, "activity_regularizer": null, "kernel_size": [1, 1]}, "inbound_nodes": [[["block35_7_ac", 0, 0, {}]]], "name": "block35/branch_0/8"}, {"class_name": "Conv2D", "config": {"kernel_constraint": null, "kernel_initializer": {"class_name": "VarianceScaling", "config": {"distribution": "uniform", "scale": 1.0, "seed": null, "mode": "fan_avg"}}, "name": "block35/branch_1_2/8", "bias_regularizer": null, "bias_constraint": null, "activation": "linear", "trainable": true, "data_format": "channels_last", "padding": "same", "strides": [1, 1], "dilation_rate": [1, 1], "kernel_regularizer": null, "filters": 32, "bias_initializer": {"class_name": "Zeros", "config": {}}, "use_bias": true, "activity_regularizer": null, "kernel_size": [3, 3]}, "inbound_nodes": [[["block35/branch_1_1/relu/8", 0, 0, {}]]], "name": "block35/branch_1_2/8"}, {"class_name": "Conv2D", "config": {"kernel_constraint": null, "kernel_initializer": {"class_name": "VarianceScaling", "config": {"distribution": "uniform", "scale": 1.0, "seed": null, "mode": "fan_avg"}}, "name": "block35/branch_2_3/8", "bias_regularizer": null, "bias_constraint": null, "activation": "linear", "trainable": true, "data_format": "channels_last", "padding": "same", "strides": [1, 1], "dilation_rate": [1, 1], "kernel_regularizer": null, "filters": 64, "bias_initializer": {"class_name": "Zeros", "config": {}}, "use_bias": true, "activity_regularizer": null, "kernel_size": [3, 3]}, "inbound_nodes": [[["block35/branch_2_2/relu/8", 0, 0, {}]]], "name": "block35/branch_2_3/8"}, {"class_name": "BatchNormalization", "config": {"beta_constraint": null, "gamma_initializer": {"class_name": "Ones", "config": {}}, "moving_mean_initializer": {"class_name": "Zeros", "config": {}}, "name": "block35/bn_branch_0/8", "epsilon": 0.001, "trainable": true, "moving_variance_initializer": {"class_name": "Ones", "config": {}}, "beta_initializer": {"class_name": "Zeros", "config": {}}, "scale": true, "axis": 3, "gamma_constraint": null, "gamma_regularizer": null, "beta_regularizer": null, "momentum": 0.99, "center": true}, "inbound_nodes": [[["block35/branch_0/8", 0, 0, {}]]], "name": "block35/bn_branch_0/8"}, {"class_name": "BatchNormalization", "config": {"beta_constraint": null, "gamma_initializer": {"class_name": "Ones", "config": {}}, "moving_mean_initializer": {"class_name": "Zeros", "config": {}}, "name": "block35/bn_branch_1_2/8", "epsilon": 0.001, "trainable": true, "moving_variance_initializer": {"class_name": "Ones", "config": {}}, "beta_initializer": {"class_name": "Zeros", "config": {}}, "scale": true, "axis": 3, "gamma_constraint": null, "gamma_regularizer": null, "beta_regularizer": null, "momentum": 0.99, "center": true}, "inbound_nodes": [[["block35/branch_1_2/8", 0, 0, {}]]], "name": "block35/bn_branch_1_2/8"}, {"class_name": "BatchNormalization", "config": {"beta_constraint": null, "gamma_initializer": {"class_name": "Ones", "config": {}}, "moving_mean_initializer": {"class_name": "Zeros", "config": {}}, "name": "block35/bn_branch_2_3/8", "epsilon": 0.001, "trainable": true, "moving_variance_initializer": {"class_name": "Ones", "config": {}}, "beta_initializer": {"class_name": "Zeros", "config": {}}, "scale": true, "axis": 3, "gamma_constraint": null, "gamma_regularizer": null, "beta_regularizer": null, "momentum": 0.99, "center": true}, "inbound_nodes": [[["block35/branch_2_3/8", 0, 0, {}]]], "name": "block35/bn_branch_2_3/8"}, {"class_name": "Activation", "config": {"activation": "relu", "trainable": true, "name": "block35/branch_0/relu/8"}, "inbound_nodes": [[["block35/bn_branch_0/8", 0, 0, {}]]], "name": "block35/branch_0/relu/8"}, {"class_name": "Activation", "config": {"activation": "relu", "trainable": true, "name": "block35/branch_1_2/relu/8"}, "inbound_nodes": [[["block35/bn_branch_1_2/8", 0, 0, {}]]], "name": "block35/branch_1_2/relu/8"}, {"class_name": "Activation", "config": {"activation": "relu", "trainable": true, "name": "block35/branch_2_3/relu/8"}, "inbound_nodes": [[["block35/bn_branch_2_3/8", 0, 0, {}]]], "name": "block35/branch_2_3/relu/8"}, {"class_name": "Concatenate", "config": {"trainable": true, "name": "block35_8_mixed", "axis": 3}, "inbound_nodes": [[["block35/branch_0/relu/8", 0, 0, {}], ["block35/branch_1_2/relu/8", 0, 0, {}], ["block35/branch_2_3/relu/8", 0, 0, {}]]], "name": "block35_8_mixed"}, {"class_name": "Conv2D", "config": {"kernel_constraint": null, "kernel_initializer": {"class_name": "VarianceScaling", "config": {"distribution": "uniform", "scale": 1.0, "seed": null, "mode": "fan_avg"}}, "name": "block35_8_conv", "bias_regularizer": null, "bias_constraint": null, "activation": "linear", "trainable": true, "data_format": "channels_last", "padding": "same", "strides": [1, 1], "dilation_rate": [1, 1], "kernel_regularizer": null, "filters": 320, "bias_initializer": {"class_name": "Zeros", "config": {}}, "use_bias": true, "activity_regularizer": null, "kernel_size": [1, 1]}, "inbound_nodes": [[["block35_8_mixed", 0, 0, {}]]], "name": "block35_8_conv"}, {"class_name": "Lambda", "config": {"function": ["c\u0002\u0000\u0000\u0000\u0002\u0000\u0000\u0000\u0003\u0000\u0000\u0000S\u0000\u0000\u0000s\u0014\u0000\u0000\u0000|\u0000\u0000d\u0001\u0000\u0019|\u0000\u0000d\u0002\u0000\u0019|\u0001\u0000\u0014\u0017S(\u0003\u0000\u0000\u0000Ni\u0000\u0000\u0000\u0000i\u0001\u0000\u0000\u0000(\u0000\u0000\u0000\u0000(\u0002\u0000\u0000\u0000t\u0006\u0000\u0000\u0000inputst\u0005\u0000\u0000\u0000scale(\u0000\u0000\u0000\u0000(\u0000\u0000\u0000\u0000s0\u0000\u0000\u0000/ai/sources/keras.ins.facenet/inceptionresnet.pyt\b\u0000\u0000\u0000<lambda>N\u0000\u0000\u0000t\u0000\u0000\u0000\u0000", null, null], "name": "block35_8", "trainable": true, "function_type": "lambda", "arguments": {"scale": 0.17}, "output_shape": [35, 35, 320], "output_shape_type": "raw"}, "inbound_nodes": [[["block35_7_ac", 0, 0, {}], ["block35_8_conv", 0, 0, {}]]], "name": "block35_8"}, {"class_name": "Activation", "config": {"activation": "relu", "trainable": true, "name": "block35_8_ac"}, "inbound_nodes": [[["block35_8", 0, 0, {}]]], "name": "block35_8_ac"}, {"class_name": "Conv2D", "config": {"kernel_constraint": null, "kernel_initializer": {"class_name": "VarianceScaling", "config": {"distribution": "uniform", "scale": 1.0, "seed": null, "mode": "fan_avg"}}, "name": "block35/branch_2_1/9", "bias_regularizer": null, "bias_constraint": null, "activation": "linear", "trainable": true, "data_format": "channels_last", "padding": "same", "strides": [1, 1], "dilation_rate": [1, 1], "kernel_regularizer": null, "filters": 32, "bias_initializer": {"class_name": "Zeros", "config": {}}, "use_bias": true, "activity_regularizer": null, "kernel_size": [1, 1]}, "inbound_nodes": [[["block35_8_ac", 0, 0, {}]]], "name": "block35/branch_2_1/9"}, {"class_name": "BatchNormalization", "config": {"beta_constraint": null, "gamma_initializer": {"class_name": "Ones", "config": {}}, "moving_mean_initializer": {"class_name": "Zeros", "config": {}}, "name": "block35/bn_branch_2_1/9", "epsilon": 0.001, "trainable": true, "moving_variance_initializer": {"class_name": "Ones", "config": {}}, "beta_initializer": {"class_name": "Zeros", "config": {}}, "scale": true, "axis": 3, "gamma_constraint": null, "gamma_regularizer": null, "beta_regularizer": null, "momentum": 0.99, "center": true}, "inbound_nodes": [[["block35/branch_2_1/9", 0, 0, {}]]], "name": "block35/bn_branch_2_1/9"}, {"class_name": "Activation", "config": {"activation": "relu", "trainable": true, "name": "block35/branch_2_1/relu/9"}, "inbound_nodes": [[["block35/bn_branch_2_1/9", 0, 0, {}]]], "name": "block35/branch_2_1/relu/9"}, {"class_name": "Conv2D", "config": {"kernel_constraint": null, "kernel_initializer": {"class_name": "VarianceScaling", "config": {"distribution": "uniform", "scale": 1.0, "seed": null, "mode": "fan_avg"}}, "name": "block35/branch_1_1/9", "bias_regularizer": null, "bias_constraint": null, "activation": "linear", "trainable": true, "data_format": "channels_last", "padding": "same", "strides": [1, 1], "dilation_rate": [1, 1], "kernel_regularizer": null, "filters": 32, "bias_initializer": {"class_name": "Zeros", "config": {}}, "use_bias": true, "activity_regularizer": null, "kernel_size": [1, 1]}, "inbound_nodes": [[["block35_8_ac", 0, 0, {}]]], "name": "block35/branch_1_1/9"}, {"class_name": "Conv2D", "config": {"kernel_constraint": null, "kernel_initializer": {"class_name": "VarianceScaling", "config": {"distribution": "uniform", "scale": 1.0, "seed": null, "mode": "fan_avg"}}, "name": "block35/branch_2_2/9", "bias_regularizer": null, "bias_constraint": null, "activation": "linear", "trainable": true, "data_format": "channels_last", "padding": "same", "strides": [1, 1], "dilation_rate": [1, 1], "kernel_regularizer": null, "filters": 48, "bias_initializer": {"class_name": "Zeros", "config": {}}, "use_bias": true, "activity_regularizer": null, "kernel_size": [3, 3]}, "inbound_nodes": [[["block35/branch_2_1/relu/9", 0, 0, {}]]], "name": "block35/branch_2_2/9"}, {"class_name": "BatchNormalization", "config": {"beta_constraint": null, "gamma_initializer": {"class_name": "Ones", "config": {}}, "moving_mean_initializer": {"class_name": "Zeros", "config": {}}, "name": "block35/bn_branch_1_1/9", "epsilon": 0.001, "trainable": true, "moving_variance_initializer": {"class_name": "Ones", "config": {}}, "beta_initializer": {"class_name": "Zeros", "config": {}}, "scale": true, "axis": 3, "gamma_constraint": null, "gamma_regularizer": null, "beta_regularizer": null, "momentum": 0.99, "center": true}, "inbound_nodes": [[["block35/branch_1_1/9", 0, 0, {}]]], "name": "block35/bn_branch_1_1/9"}, {"class_name": "BatchNormalization", "config": {"beta_constraint": null, "gamma_initializer": {"class_name": "Ones", "config": {}}, "moving_mean_initializer": {"class_name": "Zeros", "config": {}}, "name": "block35/bn_branch_2_2/9", "epsilon": 0.001, "trainable": true, "moving_variance_initializer": {"class_name": "Ones", "config": {}}, "beta_initializer": {"class_name": "Zeros", "config": {}}, "scale": true, "axis": 3, "gamma_constraint": null, "gamma_regularizer": null, "beta_regularizer": null, "momentum": 0.99, "center": true}, "inbound_nodes": [[["block35/branch_2_2/9", 0, 0, {}]]], "name": "block35/bn_branch_2_2/9"}, {"class_name": "Activation", "config": {"activation": "relu", "trainable": true, "name": "block35/branch_1_1/relu/9"}, "inbound_nodes": [[["block35/bn_branch_1_1/9", 0, 0, {}]]], "name": "block35/branch_1_1/relu/9"}, {"class_name": "Activation", "config": {"activation": "relu", "trainable": true, "name": "block35/branch_2_2/relu/9"}, "inbound_nodes": [[["block35/bn_branch_2_2/9", 0, 0, {}]]], "name": "block35/branch_2_2/relu/9"}, {"class_name": "Conv2D", "config": {"kernel_constraint": null, "kernel_initializer": {"class_name": "VarianceScaling", "config": {"distribution": "uniform", "scale": 1.0, "seed": null, "mode": "fan_avg"}}, "name": "block35/branch_0/9", "bias_regularizer": null, "bias_constraint": null, "activation": "linear", "trainable": true, "data_format": "channels_last", "padding": "same", "strides": [1, 1], "dilation_rate": [1, 1], "kernel_regularizer": null, "filters": 32, "bias_initializer": {"class_name": "Zeros", "config": {}}, "use_bias": true, "activity_regularizer": null, "kernel_size": [1, 1]}, "inbound_nodes": [[["block35_8_ac", 0, 0, {}]]], "name": "block35/branch_0/9"}, {"class_name": "Conv2D", "config": {"kernel_constraint": null, "kernel_initializer": {"class_name": "VarianceScaling", "config": {"distribution": "uniform", "scale": 1.0, "seed": null, "mode": "fan_avg"}}, "name": "block35/branch_1_2/9", "bias_regularizer": null, "bias_constraint": null, "activation": "linear", "trainable": true, "data_format": "channels_last", "padding": "same", "strides": [1, 1], "dilation_rate": [1, 1], "kernel_regularizer": null, "filters": 32, "bias_initializer": {"class_name": "Zeros", "config": {}}, "use_bias": true, "activity_regularizer": null, "kernel_size": [3, 3]}, "inbound_nodes": [[["block35/branch_1_1/relu/9", 0, 0, {}]]], "name": "block35/branch_1_2/9"}, {"class_name": "Conv2D", "config": {"kernel_constraint": null, "kernel_initializer": {"class_name": "VarianceScaling", "config": {"distribution": "uniform", "scale": 1.0, "seed": null, "mode": "fan_avg"}}, "name": "block35/branch_2_3/9", "bias_regularizer": null, "bias_constraint": null, "activation": "linear", "trainable": true, "data_format": "channels_last", "padding": "same", "strides": [1, 1], "dilation_rate": [1, 1], "kernel_regularizer": null, "filters": 64, "bias_initializer": {"class_name": "Zeros", "config": {}}, "use_bias": true, "activity_regularizer": null, "kernel_size": [3, 3]}, "inbound_nodes": [[["block35/branch_2_2/relu/9", 0, 0, {}]]], "name": "block35/branch_2_3/9"}, {"class_name": "BatchNormalization", "config": {"beta_constraint": null, "gamma_initializer": {"class_name": "Ones", "config": {}}, "moving_mean_initializer": {"class_name": "Zeros", "config": {}}, "name": "block35/bn_branch_0/9", "epsilon": 0.001, "trainable": true, "moving_variance_initializer": {"class_name": "Ones", "config": {}}, "beta_initializer": {"class_name": "Zeros", "config": {}}, "scale": true, "axis": 3, "gamma_constraint": null, "gamma_regularizer": null, "beta_regularizer": null, "momentum": 0.99, "center": true}, "inbound_nodes": [[["block35/branch_0/9", 0, 0, {}]]], "name": "block35/bn_branch_0/9"}, {"class_name": "BatchNormalization", "config": {"beta_constraint": null, "gamma_initializer": {"class_name": "Ones", "config": {}}, "moving_mean_initializer": {"class_name": "Zeros", "config": {}}, "name": "block35/bn_branch_1_2/9", "epsilon": 0.001, "trainable": true, "moving_variance_initializer": {"class_name": "Ones", "config": {}}, "beta_initializer": {"class_name": "Zeros", "config": {}}, "scale": true, "axis": 3, "gamma_constraint": null, "gamma_regularizer": null, "beta_regularizer": null, "momentum": 0.99, "center": true}, "inbound_nodes": [[["block35/branch_1_2/9", 0, 0, {}]]], "name": "block35/bn_branch_1_2/9"}, {"class_name": "BatchNormalization", "config": {"beta_constraint": null, "gamma_initializer": {"class_name": "Ones", "config": {}}, "moving_mean_initializer": {"class_name": "Zeros", "config": {}}, "name": "block35/bn_branch_2_3/9", "epsilon": 0.001, "trainable": true, "moving_variance_initializer": {"class_name": "Ones", "config": {}}, "beta_initializer": {"class_name": "Zeros", "config": {}}, "scale": true, "axis": 3, "gamma_constraint": null, "gamma_regularizer": null, "beta_regularizer": null, "momentum": 0.99, "center": true}, "inbound_nodes": [[["block35/branch_2_3/9", 0, 0, {}]]], "name": "block35/bn_branch_2_3/9"}, {"class_name": "Activation", "config": {"activation": "relu", "trainable": true, "name": "block35/branch_0/relu/9"}, "inbound_nodes": [[["block35/bn_branch_0/9", 0, 0, {}]]], "name": "block35/branch_0/relu/9"}, {"class_name": "Activation", "config": {"activation": "relu", "trainable": true, "name": "block35/branch_1_2/relu/9"}, "inbound_nodes": [[["block35/bn_branch_1_2/9", 0, 0, {}]]], "name": "block35/branch_1_2/relu/9"}, {"class_name": "Activation", "config": {"activation": "relu", "trainable": true, "name": "block35/branch_2_3/relu/9"}, "inbound_nodes": [[["block35/bn_branch_2_3/9", 0, 0, {}]]], "name": "block35/branch_2_3/relu/9"}, {"class_name": "Concatenate", "config": {"trainable": true, "name": "block35_9_mixed", "axis": 3}, "inbound_nodes": [[["block35/branch_0/relu/9", 0, 0, {}], ["block35/branch_1_2/relu/9", 0, 0, {}], ["block35/branch_2_3/relu/9", 0, 0, {}]]], "name": "block35_9_mixed"}, {"class_name": "Conv2D", "config": {"kernel_constraint": null, "kernel_initializer": {"class_name": "VarianceScaling", "config": {"distribution": "uniform", "scale": 1.0, "seed": null, "mode": "fan_avg"}}, "name": "block35_9_conv", "bias_regularizer": null, "bias_constraint": null, "activation": "linear", "trainable": true, "data_format": "channels_last", "padding": "same", "strides": [1, 1], "dilation_rate": [1, 1], "kernel_regularizer": null, "filters": 320, "bias_initializer": {"class_name": "Zeros", "config": {}}, "use_bias": true, "activity_regularizer": null, "kernel_size": [1, 1]}, "inbound_nodes": [[["block35_9_mixed", 0, 0, {}]]], "name": "block35_9_conv"}, {"class_name": "Lambda", "config": {"function": ["c\u0002\u0000\u0000\u0000\u0002\u0000\u0000\u0000\u0003\u0000\u0000\u0000S\u0000\u0000\u0000s\u0014\u0000\u0000\u0000|\u0000\u0000d\u0001\u0000\u0019|\u0000\u0000d\u0002\u0000\u0019|\u0001\u0000\u0014\u0017S(\u0003\u0000\u0000\u0000Ni\u0000\u0000\u0000\u0000i\u0001\u0000\u0000\u0000(\u0000\u0000\u0000\u0000(\u0002\u0000\u0000\u0000t\u0006\u0000\u0000\u0000inputst\u0005\u0000\u0000\u0000scale(\u0000\u0000\u0000\u0000(\u0000\u0000\u0000\u0000s0\u0000\u0000\u0000/ai/sources/keras.ins.facenet/inceptionresnet.pyt\b\u0000\u0000\u0000<lambda>N\u0000\u0000\u0000t\u0000\u0000\u0000\u0000", null, null], "name": "block35_9", "trainable": true, "function_type": "lambda", "arguments": {"scale": 0.17}, "output_shape": [35, 35, 320], "output_shape_type": "raw"}, "inbound_nodes": [[["block35_8_ac", 0, 0, {}], ["block35_9_conv", 0, 0, {}]]], "name": "block35_9"}, {"class_name": "Activation", "config": {"activation": "relu", "trainable": true, "name": "block35_9_ac"}, "inbound_nodes": [[["block35_9", 0, 0, {}]]], "name": "block35_9_ac"}, {"class_name": "Conv2D", "config": {"kernel_constraint": null, "kernel_initializer": {"class_name": "VarianceScaling", "config": {"distribution": "uniform", "scale": 1.0, "seed": null, "mode": "fan_avg"}}, "name": "block35/branch_2_1/10", "bias_regularizer": null, "bias_constraint": null, "activation": "linear", "trainable": true, "data_format": "channels_last", "padding": "same", "strides": [1, 1], "dilation_rate": [1, 1], "kernel_regularizer": null, "filters": 32, "bias_initializer": {"class_name": "Zeros", "config": {}}, "use_bias": true, "activity_regularizer": null, "kernel_size": [1, 1]}, "inbound_nodes": [[["block35_9_ac", 0, 0, {}]]], "name": "block35/branch_2_1/10"}, {"class_name": "BatchNormalization", "config": {"beta_constraint": null, "gamma_initializer": {"class_name": "Ones", "config": {}}, "moving_mean_initializer": {"class_name": "Zeros", "config": {}}, "name": "block35/bn_branch_2_1/10", "epsilon": 0.001, "trainable": true, "moving_variance_initializer": {"class_name": "Ones", "config": {}}, "beta_initializer": {"class_name": "Zeros", "config": {}}, "scale": true, "axis": 3, "gamma_constraint": null, "gamma_regularizer": null, "beta_regularizer": null, "momentum": 0.99, "center": true}, "inbound_nodes": [[["block35/branch_2_1/10", 0, 0, {}]]], "name": "block35/bn_branch_2_1/10"}, {"class_name": "Activation", "config": {"activation": "relu", "trainable": true, "name": "block35/branch_2_1/relu/10"}, "inbound_nodes": [[["block35/bn_branch_2_1/10", 0, 0, {}]]], "name": "block35/branch_2_1/relu/10"}, {"class_name": "Conv2D", "config": {"kernel_constraint": null, "kernel_initializer": {"class_name": "VarianceScaling", "config": {"distribution": "uniform", "scale": 1.0, "seed": null, "mode": "fan_avg"}}, "name": "block35/branch_1_1/10", "bias_regularizer": null, "bias_constraint": null, "activation": "linear", "trainable": true, "data_format": "channels_last", "padding": "same", "strides": [1, 1], "dilation_rate": [1, 1], "kernel_regularizer": null, "filters": 32, "bias_initializer": {"class_name": "Zeros", "config": {}}, "use_bias": true, "activity_regularizer": null, "kernel_size": [1, 1]}, "inbound_nodes": [[["block35_9_ac", 0, 0, {}]]], "name": "block35/branch_1_1/10"}, {"class_name": "Conv2D", "config": {"kernel_constraint": null, "kernel_initializer": {"class_name": "VarianceScaling", "config": {"distribution": "uniform", "scale": 1.0, "seed": null, "mode": "fan_avg"}}, "name": "block35/branch_2_2/10", "bias_regularizer": null, "bias_constraint": null, "activation": "linear", "trainable": true, "data_format": "channels_last", "padding": "same", "strides": [1, 1], "dilation_rate": [1, 1], "kernel_regularizer": null, "filters": 48, "bias_initializer": {"class_name": "Zeros", "config": {}}, "use_bias": true, "activity_regularizer": null, "kernel_size": [3, 3]}, "inbound_nodes": [[["block35/branch_2_1/relu/10", 0, 0, {}]]], "name": "block35/branch_2_2/10"}, {"class_name": "BatchNormalization", "config": {"beta_constraint": null, "gamma_initializer": {"class_name": "Ones", "config": {}}, "moving_mean_initializer": {"class_name": "Zeros", "config": {}}, "name": "block35/bn_branch_1_1/10", "epsilon": 0.001, "trainable": true, "moving_variance_initializer": {"class_name": "Ones", "config": {}}, "beta_initializer": {"class_name": "Zeros", "config": {}}, "scale": true, "axis": 3, "gamma_constraint": null, "gamma_regularizer": null, "beta_regularizer": null, "momentum": 0.99, "center": true}, "inbound_nodes": [[["block35/branch_1_1/10", 0, 0, {}]]], "name": "block35/bn_branch_1_1/10"}, {"class_name": "BatchNormalization", "config": {"beta_constraint": null, "gamma_initializer": {"class_name": "Ones", "config": {}}, "moving_mean_initializer": {"class_name": "Zeros", "config": {}}, "name": "block35/bn_branch_2_2/10", "epsilon": 0.001, "trainable": true, "moving_variance_initializer": {"class_name": "Ones", "config": {}}, "beta_initializer": {"class_name": "Zeros", "config": {}}, "scale": true, "axis": 3, "gamma_constraint": null, "gamma_regularizer": null, "beta_regularizer": null, "momentum": 0.99, "center": true}, "inbound_nodes": [[["block35/branch_2_2/10", 0, 0, {}]]], "name": "block35/bn_branch_2_2/10"}, {"class_name": "Activation", "config": {"activation": "relu", "trainable": true, "name": "block35/branch_1_1/relu/10"}, "inbound_nodes": [[["block35/bn_branch_1_1/10", 0, 0, {}]]], "name": "block35/branch_1_1/relu/10"}, {"class_name": "Activation", "config": {"activation": "relu", "trainable": true, "name": "block35/branch_2_2/relu/10"}, "inbound_nodes": [[["block35/bn_branch_2_2/10", 0, 0, {}]]], "name": "block35/branch_2_2/relu/10"}, {"class_name": "Conv2D", "config": {"kernel_constraint": null, "kernel_initializer": {"class_name": "VarianceScaling", "config": {"distribution": "uniform", "scale": 1.0, "seed": null, "mode": "fan_avg"}}, "name": "block35/branch_0/10", "bias_regularizer": null, "bias_constraint": null, "activation": "linear", "trainable": true, "data_format": "channels_last", "padding": "same", "strides": [1, 1], "dilation_rate": [1, 1], "kernel_regularizer": null, "filters": 32, "bias_initializer": {"class_name": "Zeros", "config": {}}, "use_bias": true, "activity_regularizer": null, "kernel_size": [1, 1]}, "inbound_nodes": [[["block35_9_ac", 0, 0, {}]]], "name": "block35/branch_0/10"}, {"class_name": "Conv2D", "config": {"kernel_constraint": null, "kernel_initializer": {"class_name": "VarianceScaling", "config": {"distribution": "uniform", "scale": 1.0, "seed": null, "mode": "fan_avg"}}, "name": "block35/branch_1_2/10", "bias_regularizer": null, "bias_constraint": null, "activation": "linear", "trainable": true, "data_format": "channels_last", "padding": "same", "strides": [1, 1], "dilation_rate": [1, 1], "kernel_regularizer": null, "filters": 32, "bias_initializer": {"class_name": "Zeros", "config": {}}, "use_bias": true, "activity_regularizer": null, "kernel_size": [3, 3]}, "inbound_nodes": [[["block35/branch_1_1/relu/10", 0, 0, {}]]], "name": "block35/branch_1_2/10"}, {"class_name": "Conv2D", "config": {"kernel_constraint": null, "kernel_initializer": {"class_name": "VarianceScaling", "config": {"distribution": "uniform", "scale": 1.0, "seed": null, "mode": "fan_avg"}}, "name": "block35/branch_2_3/10", "bias_regularizer": null, "bias_constraint": null, "activation": "linear", "trainable": true, "data_format": "channels_last", "padding": "same", "strides": [1, 1], "dilation_rate": [1, 1], "kernel_regularizer": null, "filters": 64, "bias_initializer": {"class_name": "Zeros", "config": {}}, "use_bias": true, "activity_regularizer": null, "kernel_size": [3, 3]}, "inbound_nodes": [[["block35/branch_2_2/relu/10", 0, 0, {}]]], "name": "block35/branch_2_3/10"}, {"class_name": "BatchNormalization", "config": {"beta_constraint": null, "gamma_initializer": {"class_name": "Ones", "config": {}}, "moving_mean_initializer": {"class_name": "Zeros", "config": {}}, "name": "block35/bn_branch_0/10", "epsilon": 0.001, "trainable": true, "moving_variance_initializer": {"class_name": "Ones", "config": {}}, "beta_initializer": {"class_name": "Zeros", "config": {}}, "scale": true, "axis": 3, "gamma_constraint": null, "gamma_regularizer": null, "beta_regularizer": null, "momentum": 0.99, "center": true}, "inbound_nodes": [[["block35/branch_0/10", 0, 0, {}]]], "name": "block35/bn_branch_0/10"}, {"class_name": "BatchNormalization", "config": {"beta_constraint": null, "gamma_initializer": {"class_name": "Ones", "config": {}}, "moving_mean_initializer": {"class_name": "Zeros", "config": {}}, "name": "block35/bn_branch_1_2/10", "epsilon": 0.001, "trainable": true, "moving_variance_initializer": {"class_name": "Ones", "config": {}}, "beta_initializer": {"class_name": "Zeros", "config": {}}, "scale": true, "axis": 3, "gamma_constraint": null, "gamma_regularizer": null, "beta_regularizer": null, "momentum": 0.99, "center": true}, "inbound_nodes": [[["block35/branch_1_2/10", 0, 0, {}]]], "name": "block35/bn_branch_1_2/10"}, {"class_name": "BatchNormalization", "config": {"beta_constraint": null, "gamma_initializer": {"class_name": "Ones", "config": {}}, "moving_mean_initializer": {"class_name": "Zeros", "config": {}}, "name": "block35/bn_branch_2_3/10", "epsilon": 0.001, "trainable": true, "moving_variance_initializer": {"class_name": "Ones", "config": {}}, "beta_initializer": {"class_name": "Zeros", "config": {}}, "scale": true, "axis": 3, "gamma_constraint": null, "gamma_regularizer": null, "beta_regularizer": null, "momentum": 0.99, "center": true}, "inbound_nodes": [[["block35/branch_2_3/10", 0, 0, {}]]], "name": "block35/bn_branch_2_3/10"}, {"class_name": "Activation", "config": {"activation": "relu", "trainable": true, "name": "block35/branch_0/relu/10"}, "inbound_nodes": [[["block35/bn_branch_0/10", 0, 0, {}]]], "name": "block35/branch_0/relu/10"}, {"class_name": "Activation", "config": {"activation": "relu", "trainable": true, "name": "block35/branch_1_2/relu/10"}, "inbound_nodes": [[["block35/bn_branch_1_2/10", 0, 0, {}]]], "name": "block35/branch_1_2/relu/10"}, {"class_name": "Activation", "config": {"activation": "relu", "trainable": true, "name": "block35/branch_2_3/relu/10"}, "inbound_nodes": [[["block35/bn_branch_2_3/10", 0, 0, {}]]], "name": "block35/branch_2_3/relu/10"}, {"class_name": "Concatenate", "config": {"trainable": true, "name": "block35_10_mixed", "axis": 3}, "inbound_nodes": [[["block35/branch_0/relu/10", 0, 0, {}], ["block35/branch_1_2/relu/10", 0, 0, {}], ["block35/branch_2_3/relu/10", 0, 0, {}]]], "name": "block35_10_mixed"}, {"class_name": "Conv2D", "config": {"kernel_constraint": null, "kernel_initializer": {"class_name": "VarianceScaling", "config": {"distribution": "uniform", "scale": 1.0, "seed": null, "mode": "fan_avg"}}, "name": "block35_10_conv", "bias_regularizer": null, "bias_constraint": null, "activation": "linear", "trainable": true, "data_format": "channels_last", "padding": "same", "strides": [1, 1], "dilation_rate": [1, 1], "kernel_regularizer": null, "filters": 320, "bias_initializer": {"class_name": "Zeros", "config": {}}, "use_bias": true, "activity_regularizer": null, "kernel_size": [1, 1]}, "inbound_nodes": [[["block35_10_mixed", 0, 0, {}]]], "name": "block35_10_conv"}, {"class_name": "Lambda", "config": {"function": ["c\u0002\u0000\u0000\u0000\u0002\u0000\u0000\u0000\u0003\u0000\u0000\u0000S\u0000\u0000\u0000s\u0014\u0000\u0000\u0000|\u0000\u0000d\u0001\u0000\u0019|\u0000\u0000d\u0002\u0000\u0019|\u0001\u0000\u0014\u0017S(\u0003\u0000\u0000\u0000Ni\u0000\u0000\u0000\u0000i\u0001\u0000\u0000\u0000(\u0000\u0000\u0000\u0000(\u0002\u0000\u0000\u0000t\u0006\u0000\u0000\u0000inputst\u0005\u0000\u0000\u0000scale(\u0000\u0000\u0000\u0000(\u0000\u0000\u0000\u0000s0\u0000\u0000\u0000/ai/sources/keras.ins.facenet/inceptionresnet.pyt\b\u0000\u0000\u0000<lambda>N\u0000\u0000\u0000t\u0000\u0000\u0000\u0000", null, null], "name": "block35_10", "trainable": true, "function_type": "lambda", "arguments": {"scale": 0.17}, "output_shape": [35, 35, 320], "output_shape_type": "raw"}, "inbound_nodes": [[["block35_9_ac", 0, 0, {}], ["block35_10_conv", 0, 0, {}]]], "name": "block35_10"}, {"class_name": "Activation", "config": {"activation": "relu", "trainable": true, "name": "block35_10_ac"}, "inbound_nodes": [[["block35_10", 0, 0, {}]]], "name": "block35_10_ac"}, {"class_name": "Conv2D", "config": {"kernel_constraint": null, "kernel_initializer": {"class_name": "VarianceScaling", "config": {"distribution": "uniform", "scale": 1.0, "seed": null, "mode": "fan_avg"}}, "name": "mixed_6a/branch_1_1", "bias_regularizer": null, "bias_constraint": null, "activation": "linear", "trainable": true, "data_format": "channels_last", "padding": "same", "strides": [1, 1], "dilation_rate": [1, 1], "kernel_regularizer": null, "filters": 256, "bias_initializer": {"class_name": "Zeros", "config": {}}, "use_bias": true, "activity_regularizer": null, "kernel_size": [1, 1]}, "inbound_nodes": [[["block35_10_ac", 0, 0, {}]]], "name": "mixed_6a/branch_1_1"}, {"class_name": "BatchNormalization", "config": {"beta_constraint": null, "gamma_initializer": {"class_name": "Ones", "config": {}}, "moving_mean_initializer": {"class_name": "Zeros", "config": {}}, "name": "mixed_6a/bn.branch_1.1", "epsilon": 0.001, "trainable": true, "moving_variance_initializer": {"class_name": "Ones", "config": {}}, "beta_initializer": {"class_name": "Zeros", "config": {}}, "scale": true, "axis": 3, "gamma_constraint": null, "gamma_regularizer": null, "beta_regularizer": null, "momentum": 0.99, "center": true}, "inbound_nodes": [[["mixed_6a/branch_1_1", 0, 0, {}]]], "name": "mixed_6a/bn.branch_1.1"}, {"class_name": "Activation", "config": {"activation": "relu", "trainable": true, "name": "arelu14"}, "inbound_nodes": [[["mixed_6a/bn.branch_1.1", 0, 0, {}]]], "name": "arelu14"}, {"class_name": "Conv2D", "config": {"kernel_constraint": null, "kernel_initializer": {"class_name": "VarianceScaling", "config": {"distribution": "uniform", "scale": 1.0, "seed": null, "mode": "fan_avg"}}, "name": "mixed_6a/branch_1_2", "bias_regularizer": null, "bias_constraint": null, "activation": "linear", "trainable": true, "data_format": "channels_last", "padding": "same", "strides": [1, 1], "dilation_rate": [1, 1], "kernel_regularizer": null, "filters": 256, "bias_initializer": {"class_name": "Zeros", "config": {}}, "use_bias": true, "activity_regularizer": null, "kernel_size": [3, 3]}, "inbound_nodes": [[["arelu14", 0, 0, {}]]], "name": "mixed_6a/branch_1_2"}, {"class_name": "BatchNormalization", "config": {"beta_constraint": null, "gamma_initializer": {"class_name": "Ones", "config": {}}, "moving_mean_initializer": {"class_name": "Zeros", "config": {}}, "name": "mixed_6a/bn.branch_1.2", "epsilon": 0.001, "trainable": true, "moving_variance_initializer": {"class_name": "Ones", "config": {}}, "beta_initializer": {"class_name": "Zeros", "config": {}}, "scale": true, "axis": 3, "gamma_constraint": null, "gamma_regularizer": null, "beta_regularizer": null, "momentum": 0.99, "center": true}, "inbound_nodes": [[["mixed_6a/branch_1_2", 0, 0, {}]]], "name": "mixed_6a/bn.branch_1.2"}, {"class_name": "Activation", "config": {"activation": "relu", "trainable": true, "name": "arelu15"}, "inbound_nodes": [[["mixed_6a/bn.branch_1.2", 0, 0, {}]]], "name": "arelu15"}, {"class_name": "Conv2D", "config": {"kernel_constraint": null, "kernel_initializer": {"class_name": "VarianceScaling", "config": {"distribution": "uniform", "scale": 1.0, "seed": null, "mode": "fan_avg"}}, "name": "mixed_6a/branch_0", "bias_regularizer": null, "bias_constraint": null, "activation": "linear", "trainable": true, "data_format": "channels_last", "padding": "valid", "strides": [2, 2], "dilation_rate": [1, 1], "kernel_regularizer": null, "filters": 384, "bias_initializer": {"class_name": "Zeros", "config": {}}, "use_bias": true, "activity_regularizer": null, "kernel_size": [3, 3]}, "inbound_nodes": [[["block35_10_ac", 0, 0, {}]]], "name": "mixed_6a/branch_0"}, {"class_name": "Conv2D", "config": {"kernel_constraint": null, "kernel_initializer": {"class_name": "VarianceScaling", "config": {"distribution": "uniform", "scale": 1.0, "seed": null, "mode": "fan_avg"}}, "name": "mixed_6a/branch_1_3", "bias_regularizer": null, "bias_constraint": null, "activation": "linear", "trainable": true, "data_format": "channels_last", "padding": "valid", "strides": [2, 2], "dilation_rate": [1, 1], "kernel_regularizer": null, "filters": 384, "bias_initializer": {"class_name": "Zeros", "config": {}}, "use_bias": true, "activity_regularizer": null, "kernel_size": [3, 3]}, "inbound_nodes": [[["arelu15", 0, 0, {}]]], "name": "mixed_6a/branch_1_3"}, {"class_name": "BatchNormalization", "config": {"beta_constraint": null, "gamma_initializer": {"class_name": "Ones", "config": {}}, "moving_mean_initializer": {"class_name": "Zeros", "config": {}}, "name": "mixed_6a/bn.branch_0", "epsilon": 0.001, "trainable": true, "moving_variance_initializer": {"class_name": "Ones", "config": {}}, "beta_initializer": {"class_name": "Zeros", "config": {}}, "scale": true, "axis": 3, "gamma_constraint": null, "gamma_regularizer": null, "beta_regularizer": null, "momentum": 0.99, "center": true}, "inbound_nodes": [[["mixed_6a/branch_0", 0, 0, {}]]], "name": "mixed_6a/bn.branch_0"}, {"class_name": "BatchNormalization", "config": {"beta_constraint": null, "gamma_initializer": {"class_name": "Ones", "config": {}}, "moving_mean_initializer": {"class_name": "Zeros", "config": {}}, "name": "mixed_6a/bn.branch_1.3", "epsilon": 0.001, "trainable": true, "moving_variance_initializer": {"class_name": "Ones", "config": {}}, "beta_initializer": {"class_name": "Zeros", "config": {}}, "scale": true, "axis": 3, "gamma_constraint": null, "gamma_regularizer": null, "beta_regularizer": null, "momentum": 0.99, "center": true}, "inbound_nodes": [[["mixed_6a/branch_1_3", 0, 0, {}]]], "name": "mixed_6a/bn.branch_1.3"}, {"class_name": "Activation", "config": {"activation": "relu", "trainable": true, "name": "arelu13"}, "inbound_nodes": [[["mixed_6a/bn.branch_0", 0, 0, {}]]], "name": "arelu13"}, {"class_name": "Activation", "config": {"activation": "relu", "trainable": true, "name": "arelu16"}, "inbound_nodes": [[["mixed_6a/bn.branch_1.3", 0, 0, {}]]], "name": "arelu16"}, {"class_name": "MaxPooling2D", "config": {"name": "mp4", "trainable": true, "data_format": "channels_last", "pool_size": [3, 3], "padding": "valid", "strides": [2, 2]}, "inbound_nodes": [[["block35_10_ac", 0, 0, {}]]], "name": "mp4"}, {"class_name": "Concatenate", "config": {"trainable": true, "name": "mixed_6a", "axis": 3}, "inbound_nodes": [[["arelu13", 0, 0, {}], ["arelu16", 0, 0, {}], ["mp4", 0, 0, {}]]], "name": "mixed_6a"}, {"class_name": "Conv2D", "config": {"kernel_constraint": null, "kernel_initializer": {"class_name": "VarianceScaling", "config": {"distribution": "uniform", "scale": 1.0, "seed": null, "mode": "fan_avg"}}, "name": "block17/branch_1_1/1", "bias_regularizer": null, "bias_constraint": null, "activation": "linear", "trainable": true, "data_format": "channels_last", "padding": "same", "strides": [1, 1], "dilation_rate": [1, 1], "kernel_regularizer": null, "filters": 128, "bias_initializer": {"class_name": "Zeros", "config": {}}, "use_bias": true, "activity_regularizer": null, "kernel_size": [1, 1]}, "inbound_nodes": [[["mixed_6a", 0, 0, {}]]], "name": "block17/branch_1_1/1"}, {"class_name": "BatchNormalization", "config": {"beta_constraint": null, "gamma_initializer": {"class_name": "Ones", "config": {}}, "moving_mean_initializer": {"class_name": "Zeros", "config": {}}, "name": "block17/bn_branch_1_1/1", "epsilon": 0.001, "trainable": true, "moving_variance_initializer": {"class_name": "Ones", "config": {}}, "beta_initializer": {"class_name": "Zeros", "config": {}}, "scale": true, "axis": 3, "gamma_constraint": null, "gamma_regularizer": null, "beta_regularizer": null, "momentum": 0.99, "center": true}, "inbound_nodes": [[["block17/branch_1_1/1", 0, 0, {}]]], "name": "block17/bn_branch_1_1/1"}, {"class_name": "Activation", "config": {"activation": "relu", "trainable": true, "name": "block17/branch_1_1/relu/1"}, "inbound_nodes": [[["block17/bn_branch_1_1/1", 0, 0, {}]]], "name": "block17/branch_1_1/relu/1"}, {"class_name": "Conv2D", "config": {"kernel_constraint": null, "kernel_initializer": {"class_name": "VarianceScaling", "config": {"distribution": "uniform", "scale": 1.0, "seed": null, "mode": "fan_avg"}}, "name": "block17/branch_1_2/1", "bias_regularizer": null, "bias_constraint": null, "activation": "linear", "trainable": true, "data_format": "channels_last", "padding": "same", "strides": [1, 1], "dilation_rate": [1, 1], "kernel_regularizer": null, "filters": 160, "bias_initializer": {"class_name": "Zeros", "config": {}}, "use_bias": true, "activity_regularizer": null, "kernel_size": [1, 7]}, "inbound_nodes": [[["block17/branch_1_1/relu/1", 0, 0, {}]]], "name": "block17/branch_1_2/1"}, {"class_name": "BatchNormalization", "config": {"beta_constraint": null, "gamma_initializer": {"class_name": "Ones", "config": {}}, "moving_mean_initializer": {"class_name": "Zeros", "config": {}}, "name": "block17/bn_branch_1_2/1", "epsilon": 0.001, "trainable": true, "moving_variance_initializer": {"class_name": "Ones", "config": {}}, "beta_initializer": {"class_name": "Zeros", "config": {}}, "scale": true, "axis": 3, "gamma_constraint": null, "gamma_regularizer": null, "beta_regularizer": null, "momentum": 0.99, "center": true}, "inbound_nodes": [[["block17/branch_1_2/1", 0, 0, {}]]], "name": "block17/bn_branch_1_2/1"}, {"class_name": "Activation", "config": {"activation": "relu", "trainable": true, "name": "block17/branch_1_2/relu/1"}, "inbound_nodes": [[["block17/bn_branch_1_2/1", 0, 0, {}]]], "name": "block17/branch_1_2/relu/1"}, {"class_name": "Conv2D", "config": {"kernel_constraint": null, "kernel_initializer": {"class_name": "VarianceScaling", "config": {"distribution": "uniform", "scale": 1.0, "seed": null, "mode": "fan_avg"}}, "name": "block17/branch_0/1", "bias_regularizer": null, "bias_constraint": null, "activation": "linear", "trainable": true, "data_format": "channels_last", "padding": "same", "strides": [1, 1], "dilation_rate": [1, 1], "kernel_regularizer": null, "filters": 192, "bias_initializer": {"class_name": "Zeros", "config": {}}, "use_bias": true, "activity_regularizer": null, "kernel_size": [1, 1]}, "inbound_nodes": [[["mixed_6a", 0, 0, {}]]], "name": "block17/branch_0/1"}, {"class_name": "Conv2D", "config": {"kernel_constraint": null, "kernel_initializer": {"class_name": "VarianceScaling", "config": {"distribution": "uniform", "scale": 1.0, "seed": null, "mode": "fan_avg"}}, "name": "block17/branch_1_3/1", "bias_regularizer": null, "bias_constraint": null, "activation": "linear", "trainable": true, "data_format": "channels_last", "padding": "same", "strides": [1, 1], "dilation_rate": [1, 1], "kernel_regularizer": null, "filters": 192, "bias_initializer": {"class_name": "Zeros", "config": {}}, "use_bias": true, "activity_regularizer": null, "kernel_size": [7, 1]}, "inbound_nodes": [[["block17/branch_1_2/relu/1", 0, 0, {}]]], "name": "block17/branch_1_3/1"}, {"class_name": "BatchNormalization", "config": {"beta_constraint": null, "gamma_initializer": {"class_name": "Ones", "config": {}}, "moving_mean_initializer": {"class_name": "Zeros", "config": {}}, "name": "block17/bn_branch_0/1", "epsilon": 0.001, "trainable": true, "moving_variance_initializer": {"class_name": "Ones", "config": {}}, "beta_initializer": {"class_name": "Zeros", "config": {}}, "scale": true, "axis": 3, "gamma_constraint": null, "gamma_regularizer": null, "beta_regularizer": null, "momentum": 0.99, "center": true}, "inbound_nodes": [[["block17/branch_0/1", 0, 0, {}]]], "name": "block17/bn_branch_0/1"}, {"class_name": "BatchNormalization", "config": {"beta_constraint": null, "gamma_initializer": {"class_name": "Ones", "config": {}}, "moving_mean_initializer": {"class_name": "Zeros", "config": {}}, "name": "block17/bn_branch_1_3/1", "epsilon": 0.001, "trainable": true, "moving_variance_initializer": {"class_name": "Ones", "config": {}}, "beta_initializer": {"class_name": "Zeros", "config": {}}, "scale": true, "axis": 3, "gamma_constraint": null, "gamma_regularizer": null, "beta_regularizer": null, "momentum": 0.99, "center": true}, "inbound_nodes": [[["block17/branch_1_3/1", 0, 0, {}]]], "name": "block17/bn_branch_1_3/1"}, {"class_name": "Activation", "config": {"activation": "relu", "trainable": true, "name": "block17/branch_0/relu/1"}, "inbound_nodes": [[["block17/bn_branch_0/1", 0, 0, {}]]], "name": "block17/branch_0/relu/1"}, {"class_name": "Activation", "config": {"activation": "relu", "trainable": true, "name": "block17/branch_1_3/relu/1"}, "inbound_nodes": [[["block17/bn_branch_1_3/1", 0, 0, {}]]], "name": "block17/branch_1_3/relu/1"}, {"class_name": "Concatenate", "config": {"trainable": true, "name": "block17_1_mixed", "axis": 3}, "inbound_nodes": [[["block17/branch_0/relu/1", 0, 0, {}], ["block17/branch_1_3/relu/1", 0, 0, {}]]], "name": "block17_1_mixed"}, {"class_name": "Conv2D", "config": {"kernel_constraint": null, "kernel_initializer": {"class_name": "VarianceScaling", "config": {"distribution": "uniform", "scale": 1.0, "seed": null, "mode": "fan_avg"}}, "name": "block17_1_conv", "bias_regularizer": null, "bias_constraint": null, "activation": "linear", "trainable": true, "data_format": "channels_last", "padding": "same", "strides": [1, 1], "dilation_rate": [1, 1], "kernel_regularizer": null, "filters": 1088, "bias_initializer": {"class_name": "Zeros", "config": {}}, "use_bias": true, "activity_regularizer": null, "kernel_size": [1, 1]}, "inbound_nodes": [[["block17_1_mixed", 0, 0, {}]]], "name": "block17_1_conv"}, {"class_name": "Lambda", "config": {"function": ["c\u0002\u0000\u0000\u0000\u0002\u0000\u0000\u0000\u0003\u0000\u0000\u0000S\u0000\u0000\u0000s\u0014\u0000\u0000\u0000|\u0000\u0000d\u0001\u0000\u0019|\u0000\u0000d\u0002\u0000\u0019|\u0001\u0000\u0014\u0017S(\u0003\u0000\u0000\u0000Ni\u0000\u0000\u0000\u0000i\u0001\u0000\u0000\u0000(\u0000\u0000\u0000\u0000(\u0002\u0000\u0000\u0000t\u0006\u0000\u0000\u0000inputst\u0005\u0000\u0000\u0000scale(\u0000\u0000\u0000\u0000(\u0000\u0000\u0000\u0000s0\u0000\u0000\u0000/ai/sources/keras.ins.facenet/inceptionresnet.pyt\b\u0000\u0000\u0000<lambda>N\u0000\u0000\u0000t\u0000\u0000\u0000\u0000", null, null], "name": "block17_1", "trainable": true, "function_type": "lambda", "arguments": {"scale": 0.1}, "output_shape": [17, 17, 1088], "output_shape_type": "raw"}, "inbound_nodes": [[["mixed_6a", 0, 0, {}], ["block17_1_conv", 0, 0, {}]]], "name": "block17_1"}, {"class_name": "Activation", "config": {"activation": "relu", "trainable": true, "name": "block17_1_ac"}, "inbound_nodes": [[["block17_1", 0, 0, {}]]], "name": "block17_1_ac"}, {"class_name": "Conv2D", "config": {"kernel_constraint": null, "kernel_initializer": {"class_name": "VarianceScaling", "config": {"distribution": "uniform", "scale": 1.0, "seed": null, "mode": "fan_avg"}}, "name": "block17/branch_1_1/2", "bias_regularizer": null, "bias_constraint": null, "activation": "linear", "trainable": true, "data_format": "channels_last", "padding": "same", "strides": [1, 1], "dilation_rate": [1, 1], "kernel_regularizer": null, "filters": 128, "bias_initializer": {"class_name": "Zeros", "config": {}}, "use_bias": true, "activity_regularizer": null, "kernel_size": [1, 1]}, "inbound_nodes": [[["block17_1_ac", 0, 0, {}]]], "name": "block17/branch_1_1/2"}, {"class_name": "BatchNormalization", "config": {"beta_constraint": null, "gamma_initializer": {"class_name": "Ones", "config": {}}, "moving_mean_initializer": {"class_name": "Zeros", "config": {}}, "name": "block17/bn_branch_1_1/2", "epsilon": 0.001, "trainable": true, "moving_variance_initializer": {"class_name": "Ones", "config": {}}, "beta_initializer": {"class_name": "Zeros", "config": {}}, "scale": true, "axis": 3, "gamma_constraint": null, "gamma_regularizer": null, "beta_regularizer": null, "momentum": 0.99, "center": true}, "inbound_nodes": [[["block17/branch_1_1/2", 0, 0, {}]]], "name": "block17/bn_branch_1_1/2"}, {"class_name": "Activation", "config": {"activation": "relu", "trainable": true, "name": "block17/branch_1_1/relu/2"}, "inbound_nodes": [[["block17/bn_branch_1_1/2", 0, 0, {}]]], "name": "block17/branch_1_1/relu/2"}, {"class_name": "Conv2D", "config": {"kernel_constraint": null, "kernel_initializer": {"class_name": "VarianceScaling", "config": {"distribution": "uniform", "scale": 1.0, "seed": null, "mode": "fan_avg"}}, "name": "block17/branch_1_2/2", "bias_regularizer": null, "bias_constraint": null, "activation": "linear", "trainable": true, "data_format": "channels_last", "padding": "same", "strides": [1, 1], "dilation_rate": [1, 1], "kernel_regularizer": null, "filters": 160, "bias_initializer": {"class_name": "Zeros", "config": {}}, "use_bias": true, "activity_regularizer": null, "kernel_size": [1, 7]}, "inbound_nodes": [[["block17/branch_1_1/relu/2", 0, 0, {}]]], "name": "block17/branch_1_2/2"}, {"class_name": "BatchNormalization", "config": {"beta_constraint": null, "gamma_initializer": {"class_name": "Ones", "config": {}}, "moving_mean_initializer": {"class_name": "Zeros", "config": {}}, "name": "block17/bn_branch_1_2/2", "epsilon": 0.001, "trainable": true, "moving_variance_initializer": {"class_name": "Ones", "config": {}}, "beta_initializer": {"class_name": "Zeros", "config": {}}, "scale": true, "axis": 3, "gamma_constraint": null, "gamma_regularizer": null, "beta_regularizer": null, "momentum": 0.99, "center": true}, "inbound_nodes": [[["block17/branch_1_2/2", 0, 0, {}]]], "name": "block17/bn_branch_1_2/2"}, {"class_name": "Activation", "config": {"activation": "relu", "trainable": true, "name": "block17/branch_1_2/relu/2"}, "inbound_nodes": [[["block17/bn_branch_1_2/2", 0, 0, {}]]], "name": "block17/branch_1_2/relu/2"}, {"class_name": "Conv2D", "config": {"kernel_constraint": null, "kernel_initializer": {"class_name": "VarianceScaling", "config": {"distribution": "uniform", "scale": 1.0, "seed": null, "mode": "fan_avg"}}, "name": "block17/branch_0/2", "bias_regularizer": null, "bias_constraint": null, "activation": "linear", "trainable": true, "data_format": "channels_last", "padding": "same", "strides": [1, 1], "dilation_rate": [1, 1], "kernel_regularizer": null, "filters": 192, "bias_initializer": {"class_name": "Zeros", "config": {}}, "use_bias": true, "activity_regularizer": null, "kernel_size": [1, 1]}, "inbound_nodes": [[["block17_1_ac", 0, 0, {}]]], "name": "block17/branch_0/2"}, {"class_name": "Conv2D", "config": {"kernel_constraint": null, "kernel_initializer": {"class_name": "VarianceScaling", "config": {"distribution": "uniform", "scale": 1.0, "seed": null, "mode": "fan_avg"}}, "name": "block17/branch_1_3/2", "bias_regularizer": null, "bias_constraint": null, "activation": "linear", "trainable": true, "data_format": "channels_last", "padding": "same", "strides": [1, 1], "dilation_rate": [1, 1], "kernel_regularizer": null, "filters": 192, "bias_initializer": {"class_name": "Zeros", "config": {}}, "use_bias": true, "activity_regularizer": null, "kernel_size": [7, 1]}, "inbound_nodes": [[["block17/branch_1_2/relu/…
raint": null, "activation": "linear", "trainable": true, "data_format": "channels_last", "padding": "same", "strides": [1, 1], "dilation_rate": [1, 1], "kernel_regularizer": null, "filters": 224, "bias_initializer": {"class_name": "Zeros", "config": {}}, "use_bias": true, "activity_regularizer": null, "kernel_size": [1, 3]}, "inbound_nodes": [[["block8/branch_1_1/relu/5", 0, 0, {}]]], "name": "block8/branch_1_2/5"}, {"class_name": "BatchNormalization", "config": {"beta_constraint": null, "gamma_initializer": {"class_name": "Ones", "config": {}}, "moving_mean_initializer": {"class_name": "Zeros", "config": {}}, "name": "block8/bn_branch_1_2/5", "epsilon": 0.001, "trainable": true, "moving_variance_initializer": {"class_name": "Ones", "config": {}}, "beta_initializer": {"class_name": "Zeros", "config": {}}, "scale": true, "axis": 3, "gamma_constraint": null, "gamma_regularizer": null, "beta_regularizer": null, "momentum": 0.99, "center": true}, "inbound_nodes": [[["block8/branch_1_2/5", 0, 0, {}]]], "name": "block8/bn_branch_1_2/5"}, {"class_name": "Activation", "config": {"activation": "relu", "trainable": true, "name": "block8/branch_1_2/relu/5"}, "inbound_nodes": [[["block8/bn_branch_1_2/5", 0, 0, {}]]], "name": "block8/branch_1_2/relu/5"}, {"class_name": "Conv2D", "config": {"kernel_constraint": null, "kernel_initializer": {"class_name": "VarianceScaling", "config": {"distribution": "uniform", "scale": 1.0, "seed": null, "mode": "fan_avg"}}, "name": "block8/branch_0/5", "bias_regularizer": null, "bias_constraint": null, "activation": "linear", "trainable": true, "data_format": "channels_last", "padding": "same", "strides": [1, 1], "dilation_rate": [1, 1], "kernel_regularizer": null, "filters": 192, "bias_initializer": {"class_name": "Zeros", "config": {}}, "use_bias": true, "activity_regularizer": null, "kernel_size": [1, 1]}, "inbound_nodes": [[["block8_4_ac", 0, 0, {}]]], "name": "block8/branch_0/5"}, {"class_name": "Conv2D", "config": {"kernel_constraint": null, "kernel_initializer": {"class_name": "VarianceScaling", "config": {"distribution": "uniform", "scale": 1.0, "seed": null, "mode": "fan_avg"}}, "name": "block8/branch_1_3/5", "bias_regularizer": null, "bias_constraint": null, "activation": "linear", "trainable": true, "data_format": "channels_last", "padding": "same", "strides": [1, 1], "dilation_rate": [1, 1], "kernel_regularizer": null, "filters": 256, "bias_initializer": {"class_name": "Zeros", "config": {}}, "use_bias": true, "activity_regularizer": null, "kernel_size": [3, 1]}, "inbound_nodes": [[["block8/branch_1_2/relu/5", 0, 0, {}]]], "name": "block8/branch_1_3/5"}, {"class_name": "BatchNormalization", "config": {"beta_constraint": null, "gamma_initializer": {"class_name": "Ones", "config": {}}, "moving_mean_initializer": {"class_name": "Zeros", "config": {}}, "name": "block8/bn_branch_0/5", "epsilon": 0.001, "trainable": true, "moving_variance_initializer": {"class_name": "Ones", "config": {}}, "beta_initializer": {"class_name": "Zeros", "config": {}}, "scale": true, "axis": 3, "gamma_constraint": null, "gamma_regularizer": null, "beta_regularizer": null, "momentum": 0.99, "center": true}, "inbound_nodes": [[["block8/branch_0/5", 0, 0, {}]]], "name": "block8/bn_branch_0/5"}, {"class_name": "BatchNormalization", "config": {"beta_constraint": null, "gamma_initializer": {"class_name": "Ones", "config": {}}, "moving_mean_initializer": {"class_name": "Zeros", "config": {}}, "name": "block8/bn_branch_1_3/5", "epsilon": 0.001, "trainable": true, "moving_variance_initializer": {"class_name": "Ones", "config": {}}, "beta_initializer": {"class_name": "Zeros", "config": {}}, "scale": true, "axis": 3, "gamma_constraint": null, "gamma_regularizer": null, "beta_regularizer": null, "momentum": 0.99, "center": true}, "inbound_nodes": [[["block8/branch_1_3/5", 0, 0, {}]]], "name": "block8/bn_branch_1_3/5"}, {"class_name": "Activation", "config": {"activation": "relu", "trainable": true, "name": "block8/branch_0/relu/5"}, "inbound_nodes": [[["block8/bn_branch_0/5", 0, 0, {}]]], "name": "block8/branch_0/relu/5"}, {"class_name": "Activation", "config": {"activation": "relu", "trainable": true, "name": "block8/branch_1_3/relu/5"}, "inbound_nodes": [[["block8/bn_branch_1_3/5", 0, 0, {}]]], "name": "block8/branch_1_3/relu/5"}, {"class_name": "Concatenate", "config": {"trainable": true, "name": "block8_5_mixed", "axis": 3}, "inbound_nodes": [[["block8/branch_0/relu/5", 0, 0, {}], ["block8/branch_1_3/relu/5", 0, 0, {}]]], "name": "block8_5_mixed"}, {"class_name": "Conv2D", "config": {"kernel_constraint": null, "kernel_initializer": {"class_name": "VarianceScaling", "config": {"distribution": "uniform", "scale": 1.0, "seed": null, "mode": "fan_avg"}}, "name": "block8_5_conv", "bias_regularizer": null, "bias_constraint": null, "activation": "linear", "trainable": true, "data_format": "channels_last", "padding": "same", "strides": [1, 1], "dilation_rate": [1, 1], "kernel_regularizer": null, "filters": 2080, "bias_initializer": {"class_name": "Zeros", "config": {}}, "use_bias": true, "activity_regularizer": null, "kernel_size": [1, 1]}, "inbound_nodes": [[["block8_5_mixed", 0, 0, {}]]], "name": "block8_5_conv"}, {"class_name": "Lambda", "config": {"function": ["c\u0002\u0000\u0000\u0000\u0002\u0000\u0000\u0000\u0003\u0000\u0000\u0000S\u0000\u0000\u0000s\u0014\u0000\u0000\u0000|\u0000\u0000d\u0001\u0000\u0019|\u0000\u0000d\u0002\u0000\u0019|\u0001\u0000\u0014\u0017S(\u0003\u0000\u0000\u0000Ni\u0000\u0000\u0000\u0000i\u0001\u0000\u0000\u0000(\u0000\u0000\u0000\u0000(\u0002\u0000\u0000\u0000t\u0006\u0000\u0000\u0000inputst\u0005\u0000\u0000\u0000scale(\u0000\u0000\u0000\u0000(\u0000\u0000\u0000\u0000s0\u0000\u0000\u0000/ai/sources/keras.ins.facenet/inceptionresnet.pyt\b\u0000\u0000\u0000<lambda>N\u0000\u0000\u0000t\u0000\u0000\u0000\u0000", null, null], "name": "block8_5", "trainable": true, "function_type": "lambda", "arguments": {"scale": 0.2}, "output_shape": [8, 8, 2080], "output_shape_type": "raw"}, "inbound_nodes": [[["block8_4_ac", 0, 0, {}], ["block8_5_conv", 0, 0, {}]]], "name": "block8_5"}, {"class_name": "Activation", "config": {"activation": "relu", "trainable": true, "name": "block8_5_ac"}, "inbound_nodes": [[["block8_5", 0, 0, {}]]], "name": "block8_5_ac"}, {"class_name": "Conv2D", "config": {"kernel_constraint": null, "kernel_initializer": {"class_name": "VarianceScaling", "config": {"distribution": "uniform", "scale": 1.0, "seed": null, "mode": "fan_avg"}}, "name": "block8/branch_1_1/6", "bias_regularizer": null, "bias_constraint": null, "activation": "linear", "trainable": true, "data_format": "channels_last", "padding": "same", "strides": [1, 1], "dilation_rate": [1, 1], "kernel_regularizer": null, "filters": 192, "bias_initializer": {"class_name": "Zeros", "config": {}}, "use_bias": true, "activity_regularizer": null, "kernel_size": [1, 1]}, "inbound_nodes": [[["block8_5_ac", 0, 0, {}]]], "name": "block8/branch_1_1/6"}, {"class_name": "BatchNormalization", "config": {"beta_constraint": null, "gamma_initializer": {"class_name": "Ones", "config": {}}, "moving_mean_initializer": {"class_name": "Zeros", "config": {}}, "name": "block8/bn_branch_1_1/6", "epsilon": 0.001, "trainable": true, "moving_variance_initializer": {"class_name": "Ones", "config": {}}, "beta_initializer": {"class_name": "Zeros", "config": {}}, "scale": true, "axis": 3, "gamma_constraint": null, "gamma_regularizer": null, "beta_regularizer": null, "momentum": 0.99, "center": true}, "inbound_nodes": [[["block8/branch_1_1/6", 0, 0, {}]]], "name": "block8/bn_branch_1_1/6"}, {"class_name": "Activation", "config": {"activation": "relu", "trainable": true, "name": "block8/branch_1_1/relu/6"}, "inbound_nodes": [[["block8/bn_branch_1_1/6", 0, 0, {}]]], "name": "block8/branch_1_1/relu/6"}, {"class_name": "Conv2D", "config": {"kernel_constraint": null, "kernel_initializer": {"class_name": "VarianceScaling", "config": {"distribution": "uniform", "scale": 1.0, "seed": null, "mode": "fan_avg"}}, "name": "block8/branch_1_2/6", "bias_regularizer": null, "bias_constraint": null, "activation": "linear", "trainable": true, "data_format": "channels_last", "padding": "same", "strides": [1, 1], "dilation_rate": [1, 1], "kernel_regularizer": null, "filters": 224, "bias_initializer": {"class_name": "Zeros", "config": {}}, "use_bias": true, "activity_regularizer": null, "kernel_size": [1, 3]}, "inbound_nodes": [[["block8/branch_1_1/relu/6", 0, 0, {}]]], "name": "block8/branch_1_2/6"}, {"class_name": "BatchNormalization", "config": {"beta_constraint": null, "gamma_initializer": {"class_name": "Ones", "config": {}}, "moving_mean_initializer": {"class_name": "Zeros", "config": {}}, "name": "block8/bn_branch_1_2/6", "epsilon": 0.001, "trainable": true, "moving_variance_initializer": {"class_name": "Ones", "config": {}}, "beta_initializer": {"class_name": "Zeros", "config": {}}, "scale": true, "axis": 3, "gamma_constraint": null, "gamma_regularizer": null, "beta_regularizer": null, "momentum": 0.99, "center": true}, "inbound_nodes": [[["block8/branch_1_2/6", 0, 0, {}]]], "name": "block8/bn_branch_1_2/6"}, {"class_name": "Activation", "config": {"activation": "relu", "trainable": true, "name": "block8/branch_1_2/relu/6"}, "inbound_nodes": [[["block8/bn_branch_1_2/6", 0, 0, {}]]], "name": "block8/branch_1_2/relu/6"}, {"class_name": "Conv2D", "config": {"kernel_constraint": null, "kernel_initializer": {"class_name": "VarianceScaling", "config": {"distribution": "uniform", "scale": 1.0, "seed": null, "mode": "fan_avg"}}, "name": "block8/branch_0/6", "bias_regularizer": null, "bias_constraint": null, "activation": "linear", "trainable": true, "data_format": "channels_last", "padding": "same", "strides": [1, 1], "dilation_rate": [1, 1], "kernel_regularizer": null, "filters": 192, "bias_initializer": {"class_name": "Zeros", "config": {}}, "use_bias": true, "activity_regularizer": null, "kernel_size": [1, 1]}, "inbound_nodes": [[["block8_5_ac", 0, 0, {}]]], "name": "block8/branch_0/6"}, {"class_name": "Conv2D", "config": {"kernel_constraint": null, "kernel_initializer": {"class_name": "VarianceScaling", "config": {"distribution": "uniform", "scale": 1.0, "seed": null, "mode": "fan_avg"}}, "name": "block8/branch_1_3/6", "bias_regularizer": null, "bias_constraint": null, "activation": "linear", "trainable": true, "data_format": "channels_last", "padding": "same", "strides": [1, 1], "dilation_rate": [1, 1], "kernel_regularizer": null, "filters": 256, "bias_initializer": {"class_name": "Zeros", "config": {}}, "use_bias": true, "activity_regularizer": null, "kernel_size": [3, 1]}, "inbound_nodes": [[["block8/branch_1_2/relu/6", 0, 0, {}]]], "name": "block8/branch_1_3/6"}, {"class_name": "BatchNormalization", "config": {"beta_constraint": null, "gamma_initializer": {"class_name": "Ones", "config": {}}, "moving_mean_initializer": {"class_name": "Zeros", "config": {}}, "name": "block8/bn_branch_0/6", "epsilon": 0.001, "trainable": true, "moving_variance_initializer": {"class_name": "Ones", "config": {}}, "beta_initializer": {"class_name": "Zeros", "config": {}}, "scale": true, "axis": 3, "gamma_constraint": null, "gamma_regularizer": null, "beta_regularizer": null, "momentum": 0.99, "center": true}, "inbound_nodes": [[["block8/branch_0/6", 0, 0, {}]]], "name": "block8/bn_branch_0/6"}, {"class_name": "BatchNormalization", "config": {"beta_constraint": null, "gamma_initializer": {"class_name": "Ones", "config": {}}, "moving_mean_initializer": {"class_name": "Zeros", "config": {}}, "name": "block8/bn_branch_1_3/6", "epsilon": 0.001, "trainable": true, "moving_variance_initializer": {"class_name": "Ones", "config": {}}, "beta_initializer": {"class_name": "Zeros", "config": {}}, "scale": true, "axis": 3, "gamma_constraint": null, "gamma_regularizer": null, "beta_regularizer": null, "momentum": 0.99, "center": true}, "inbound_nodes": [[["block8/branch_1_3/6", 0, 0, {}]]], "name": "block8/bn_branch_1_3/6"}, {"class_name": "Activation", "config": {"activation": "relu", "trainable": true, "name": "block8/branch_0/relu/6"}, "inbound_nodes": [[["block8/bn_branch_0/6", 0, 0, {}]]], "name": "block8/branch_0/relu/6"}, {"class_name": "Activation", "config": {"activation": "relu", "trainable": true, "name": "block8/branch_1_3/relu/6"}, "inbound_nodes": [[["block8/bn_branch_1_3/6", 0, 0, {}]]], "name": "block8/branch_1_3/relu/6"}, {"class_name": "Concatenate", "config": {"trainable": true, "name": "block8_6_mixed", "axis": 3}, "inbound_nodes": [[["block8/branch_0/relu/6", 0, 0, {}], ["block8/branch_1_3/relu/6", 0, 0, {}]]], "name": "block8_6_mixed"}, {"class_name": "Conv2D", "config": {"kernel_constraint": null, "kernel_initializer": {"class_name": "VarianceScaling", "config": {"distribution": "uniform", "scale": 1.0, "seed": null, "mode": "fan_avg"}}, "name": "block8_6_conv", "bias_regularizer": null, "bias_constraint": null, "activation": "linear", "trainable": true, "data_format": "channels_last", "padding": "same", "strides": [1, 1], "dilation_rate": [1, 1], "kernel_regularizer": null, "filters": 2080, "bias_initializer": {"class_name": "Zeros", "config": {}}, "use_bias": true, "activity_regularizer": null, "kernel_size": [1, 1]}, "inbound_nodes": [[["block8_6_mixed", 0, 0, {}]]], "name": "block8_6_conv"}, {"class_name": "Lambda", "config": {"function": ["c\u0002\u0000\u0000\u0000\u0002\u0000\u0000\u0000\u0003\u0000\u0000\u0000S\u0000\u0000\u0000s\u0014\u0000\u0000\u0000|\u0000\u0000d\u0001\u0000\u0019|\u0000\u0000d\u0002\u0000\u0019|\u0001\u0000\u0014\u0017S(\u0003\u0000\u0000\u0000Ni\u0000\u0000\u0000\u0000i\u0001\u0000\u0000\u0000(\u0000\u0000\u0000\u0000(\u0002\u0000\u0000\u0000t\u0006\u0000\u0000\u0000inputst\u0005\u0000\u0000\u0000scale(\u0000\u0000\u0000\u0000(\u0000\u0000\u0000\u0000s0\u0000\u0000\u0000/ai/sources/keras.ins.facenet/inceptionresnet.pyt\b\u0000\u0000\u0000<lambda>N\u0000\u0000\u0000t\u0000\u0000\u0000\u0000", null, null], "name": "block8_6", "trainable": true, "function_type": "lambda", "arguments": {"scale": 0.2}, "output_shape": [8, 8, 2080], "output_shape_type": "raw"}, "inbound_nodes": [[["block8_5_ac", 0, 0, {}], ["block8_6_conv", 0, 0, {}]]], "name": "block8_6"}, {"class_name": "Activation", "config": {"activation": "relu", "trainable": true, "name": "block8_6_ac"}, "inbound_nodes": [[["block8_6", 0, 0, {}]]], "name": "block8_6_ac"}, {"class_name": "Conv2D", "config": {"kernel_constraint": null, "kernel_initializer": {"class_name": "VarianceScaling", "config": {"distribution": "uniform", "scale": 1.0, "seed": null, "mode": "fan_avg"}}, "name": "block8/branch_1_1/7", "bias_regularizer": null, "bias_constraint": null, "activation": "linear", "trainable": true, "data_format": "channels_last", "padding": "same", "strides": [1, 1], "dilation_rate": [1, 1], "kernel_regularizer": null, "filters": 192, "bias_initializer": {"class_name": "Zeros", "config": {}}, "use_bias": true, "activity_regularizer": null, "kernel_size": [1, 1]}, "inbound_nodes": [[["block8_6_ac", 0, 0, {}]]], "name": "block8/branch_1_1/7"}, {"class_name": "BatchNormalization", "config": {"beta_constraint": null, "gamma_initializer": {"class_name": "Ones", "config": {}}, "moving_mean_initializer": {"class_name": "Zeros", "config": {}}, "name": "block8/bn_branch_1_1/7", "epsilon": 0.001, "trainable": true, "moving_variance_initializer": {"class_name": "Ones", "config": {}}, "beta_initializer": {"class_name": "Zeros", "config": {}}, "scale": true, "axis": 3, "gamma_constraint": null, "gamma_regularizer": null, "beta_regularizer": null, "momentum": 0.99, "center": true}, "inbound_nodes": [[["block8/branch_1_1/7", 0, 0, {}]]], "name": "block8/bn_branch_1_1/7"}, {"class_name": "Activation", "config": {"activation": "relu", "trainable": true, "name": "block8/branch_1_1/relu/7"}, "inbound_nodes": [[["block8/bn_branch_1_1/7", 0, 0, {}]]], "name": "block8/branch_1_1/relu/7"}, {"class_name": "Conv2D", "config": {"kernel_constraint": null, "kernel_initializer": {"class_name": "VarianceScaling", "config": {"distribution": "uniform", "scale": 1.0, "seed": null, "mode": "fan_avg"}}, "name": "block8/branch_1_2/7", "bias_regularizer": null, "bias_constraint": null, "activation": "linear", "trainable": true, "data_format": "channels_last", "padding": "same", "strides": [1, 1], "dilation_rate": [1, 1], "kernel_regularizer": null, "filters": 224, "bias_initializer": {"class_name": "Zeros", "config": {}}, "use_bias": true, "activity_regularizer": null, "kernel_size": [1, 3]}, "inbound_nodes": [[["block8/branch_1_1/relu/7", 0, 0, {}]]], "name": "block8/branch_1_2/7"}, {"class_name": "BatchNormalization", "config": {"beta_constraint": null, "gamma_initializer": {"class_name": "Ones", "config": {}}, "moving_mean_initializer": {"class_name": "Zeros", "config": {}}, "name": "block8/bn_branch_1_2/7", "epsilon": 0.001, "trainable": true, "moving_variance_initializer": {"class_name": "Ones", "config": {}}, "beta_initializer": {"class_name": "Zeros", "config": {}}, "scale": true, "axis": 3, "gamma_constraint": null, "gamma_regularizer": null, "beta_regularizer": null, "momentum": 0.99, "center": true}, "inbound_nodes": [[["block8/branch_1_2/7", 0, 0, {}]]], "name": "block8/bn_branch_1_2/7"}, {"class_name": "Activation", "config": {"activation": "relu", "trainable": true, "name": "block8/branch_1_2/relu/7"}, "inbound_nodes": [[["block8/bn_branch_1_2/7", 0, 0, {}]]], "name": "block8/branch_1_2/relu/7"}, {"class_name": "Conv2D", "config": {"kernel_constraint": null, "kernel_initializer": {"class_name": "VarianceScaling", "config": {"distribution": "uniform", "scale": 1.0, "seed": null, "mode": "fan_avg"}}, "name": "block8/branch_0/7", "bias_regularizer": null, "bias_constraint": null, "activation": "linear", "trainable": true, "data_format": "channels_last", "padding": "same", "strides": [1, 1], "dilation_rate": [1, 1], "kernel_regularizer": null, "filters": 192, "bias_initializer": {"class_name": "Zeros", "config": {}}, "use_bias": true, "activity_regularizer": null, "kernel_size": [1, 1]}, "inbound_nodes": [[["block8_6_ac", 0, 0, {}]]], "name": "block8/branch_0/7"}, {"class_name": "Conv2D", "config": {"kernel_constraint": null, "kernel_initializer": {"class_name": "VarianceScaling", "config": {"distribution": "uniform", "scale": 1.0, "seed": null, "mode": "fan_avg"}}, "name": "block8/branch_1_3/7", "bias_regularizer": null, "bias_constraint": null, "activation": "linear", "trainable": true, "data_format": "channels_last", "padding": "same", "strides": [1, 1], "dilation_rate": [1, 1], "kernel_regularizer": null, "filters": 256, "bias_initializer": {"class_name": "Zeros", "config": {}}, "use_bias": true, "activity_regularizer": null, "kernel_size": [3, 1]}, "inbound_nodes": [[["block8/branch_1_2/relu/7", 0, 0, {}]]], "name": "block8/branch_1_3/7"}, {"class_name": "BatchNormalization", "config": {"beta_constraint": null, "gamma_initializer": {"class_name": "Ones", "config": {}}, "moving_mean_initializer": {"class_name": "Zeros", "config": {}}, "name": "block8/bn_branch_0/7", "epsilon": 0.001, "trainable": true, "moving_variance_initializer": {"class_name": "Ones", "config": {}}, "beta_initializer": {"class_name": "Zeros", "config": {}}, "scale": true, "axis": 3, "gamma_constraint": null, "gamma_regularizer": null, "beta_regularizer": null, "momentum": 0.99, "center": true}, "inbound_nodes": [[["block8/branch_0/7", 0, 0, {}]]], "name": "block8/bn_branch_0/7"}, {"class_name": "BatchNormalization", "config": {"beta_constraint": null, "gamma_initializer": {"class_name": "Ones", "config": {}}, "moving_mean_initializer": {"class_name": "Zeros", "config": {}}, "name": "block8/bn_branch_1_3/7", "epsilon": 0.001, "trainable": true, "moving_variance_initializer": {"class_name": "Ones", "config": {}}, "beta_initializer": {"class_name": "Zeros", "config": {}}, "scale": true, "axis": 3, "gamma_constraint": null, "gamma_regularizer": null, "beta_regularizer": null, "momentum": 0.99, "center": true}, "inbound_nodes": [[["block8/branch_1_3/7", 0, 0, {}]]], "name": "block8/bn_branch_1_3/7"}, {"class_name": "Activation", "config": {"activation": "relu", "trainable": true, "name": "block8/branch_0/relu/7"}, "inbound_nodes": [[["block8/bn_branch_0/7", 0, 0, {}]]], "name": "block8/branch_0/relu/7"}, {"class_name": "Activation", "config": {"activation": "relu", "trainable": true, "name": "block8/branch_1_3/relu/7"}, "inbound_nodes": [[["block8/bn_branch_1_3/7", 0, 0, {}]]], "name": "block8/branch_1_3/relu/7"}, {"class_name": "Concatenate", "config": {"trainable": true, "name": "block8_7_mixed", "axis": 3}, "inbound_nodes": [[["block8/branch_0/relu/7", 0, 0, {}], ["block8/branch_1_3/relu/7", 0, 0, {}]]], "name": "block8_7_mixed"}, {"class_name": "Conv2D", "config": {"kernel_constraint": null, "kernel_initializer": {"class_name": "VarianceScaling", "config": {"distribution": "uniform", "scale": 1.0, "seed": null, "mode": "fan_avg"}}, "name": "block8_7_conv", "bias_regularizer": null, "bias_constraint": null, "activation": "linear", "trainable": true, "data_format": "channels_last", "padding": "same", "strides": [1, 1], "dilation_rate": [1, 1], "kernel_regularizer": null, "filters": 2080, "bias_initializer": {"class_name": "Zeros", "config": {}}, "use_bias": true, "activity_regularizer": null, "kernel_size": [1, 1]}, "inbound_nodes": [[["block8_7_mixed", 0, 0, {}]]], "name": "block8_7_conv"}, {"class_name": "Lambda", "config": {"function": ["c\u0002\u0000\u0000\u0000\u0002\u0000\u0000\u0000\u0003\u0000\u0000\u0000S\u0000\u0000\u0000s\u0014\u0000\u0000\u0000|\u0000\u0000d\u0001\u0000\u0019|\u0000\u0000d\u0002\u0000\u0019|\u0001\u0000\u0014\u0017S(\u0003\u0000\u0000\u0000Ni\u0000\u0000\u0000\u0000i\u0001\u0000\u0000\u0000(\u0000\u0000\u0000\u0000(\u0002\u0000\u0000\u0000t\u0006\u0000\u0000\u0000inputst\u0005\u0000\u0000\u0000scale(\u0000\u0000\u0000\u0000(\u0000\u0000\u0000\u0000s0\u0000\u0000\u0000/ai/sources/keras.ins.facenet/inceptionresnet.pyt\b\u0000\u0000\u0000<lambda>N\u0000\u0000\u0000t\u0000\u0000\u0000\u0000", null, null], "name": "block8_7", "trainable": true, "function_type": "lambda", "arguments": {"scale": 0.2}, "output_shape": [8, 8, 2080], "output_shape_type": "raw"}, "inbound_nodes": [[["block8_6_ac", 0, 0, {}], ["block8_7_conv", 0, 0, {}]]], "name": "block8_7"}, {"class_name": "Activation", "config": {"activation": "relu", "trainable": true, "name": "block8_7_ac"}, "inbound_nodes": [[["block8_7", 0, 0, {}]]], "name": "block8_7_ac"}, {"class_name": "Conv2D", "config": {"kernel_constraint": null, "kernel_initializer": {"class_name": "VarianceScaling", "config": {"distribution": "uniform", "scale": 1.0, "seed": null, "mode": "fan_avg"}}, "name": "block8/branch_1_1/8", "bias_regularizer": null, "bias_constraint": null, "activation": "linear", "trainable": true, "data_format": "channels_last", "padding": "same", "strides": [1, 1], "dilation_rate": [1, 1], "kernel_regularizer": null, "filters": 192, "bias_initializer": {"class_name": "Zeros", "config": {}}, "use_bias": true, "activity_regularizer": null, "kernel_size": [1, 1]}, "inbound_nodes": [[["block8_7_ac", 0, 0, {}]]], "name": "block8/branch_1_1/8"}, {"class_name": "BatchNormalization", "config": {"beta_constraint": null, "gamma_initializer": {"class_name": "Ones", "config": {}}, "moving_mean_initializer": {"class_name": "Zeros", "config": {}}, "name": "block8/bn_branch_1_1/8", "epsilon": 0.001, "trainable": true, "moving_variance_initializer": {"class_name": "Ones", "config": {}}, "beta_initializer": {"class_name": "Zeros", "config": {}}, "scale": true, "axis": 3, "gamma_constraint": null, "gamma_regularizer": null, "beta_regularizer": null, "momentum": 0.99, "center": true}, "inbound_nodes": [[["block8/branch_1_1/8", 0, 0, {}]]], "name": "block8/bn_branch_1_1/8"}, {"class_name": "Activation", "config": {"activation": "relu", "trainable": true, "name": "block8/branch_1_1/relu/8"}, "inbound_nodes": [[["block8/bn_branch_1_1/8", 0, 0, {}]]], "name": "block8/branch_1_1/relu/8"}, {"class_name": "Conv2D", "config": {"kernel_constraint": null, "kernel_initializer": {"class_name": "VarianceScaling", "config": {"distribution": "uniform", "scale": 1.0, "seed": null, "mode": "fan_avg"}}, "name": "block8/branch_1_2/8", "bias_regularizer": null, "bias_constraint": null, "activation": "linear", "trainable": true, "data_format": "channels_last", "padding": "same", "strides": [1, 1], "dilation_rate": [1, 1], "kernel_regularizer": null, "filters": 224, "bias_initializer": {"class_name": "Zeros", "config": {}}, "use_bias": true, "activity_regularizer": null, "kernel_size": [1, 3]}, "inbound_nodes": [[["block8/branch_1_1/relu/8", 0, 0, {}]]], "name": "block8/branch_1_2/8"}, {"class_name": "BatchNormalization", "config": {"beta_constraint": null, "gamma_initializer": {"class_name": "Ones", "config": {}}, "moving_mean_initializer": {"class_name": "Zeros", "config": {}}, "name": "block8/bn_branch_1_2/8", "epsilon": 0.001, "trainable": true, "moving_variance_initializer": {"class_name": "Ones", "config": {}}, "beta_initializer": {"class_name": "Zeros", "config": {}}, "scale": true, "axis": 3, "gamma_constraint": null, "gamma_regularizer": null, "beta_regularizer": null, "momentum": 0.99, "center": true}, "inbound_nodes": [[["block8/branch_1_2/8", 0, 0, {}]]], "name": "block8/bn_branch_1_2/8"}, {"class_name": "Activation", "config": {"activation": "relu", "trainable": true, "name": "block8/branch_1_2/relu/8"}, "inbound_nodes": [[["block8/bn_branch_1_2/8", 0, 0, {}]]], "name": "block8/branch_1_2/relu/8"}, {"class_name": "Conv2D", "config": {"kernel_constraint": null, "kernel_initializer": {"class_name": "VarianceScaling", "config": {"distribution": "uniform", "scale": 1.0, "seed": null, "mode": "fan_avg"}}, "name": "block8/branch_0/8", "bias_regularizer": null, "bias_constraint": null, "activation": "linear", "trainable": true, "data_format": "channels_last", "padding": "same", "strides": [1, 1], "dilation_rate": [1, 1], "kernel_regularizer": null, "filters": 192, "bias_initializer": {"class_name": "Zeros", "config": {}}, "use_bias": true, "activity_regularizer": null, "kernel_size": [1, 1]}, "inbound_nodes": [[["block8_7_ac", 0, 0, {}]]], "name": "block8/branch_0/8"}, {"class_name": "Conv2D", "config": {"kernel_constraint": null, "kernel_initializer": {"class_name": "VarianceScaling", "config": {"distribution": "uniform", "scale": 1.0, "seed": null, "mode": "fan_avg"}}, "name": "block8/branch_1_3/8", "bias_regularizer": null, "bias_constraint": null, "activation": "linear", "trainable": true, "data_format": "channels_last", "padding": "same", "strides": [1, 1], "dilation_rate": [1, 1], "kernel_regularizer": null, "filters": 256, "bias_initializer": {"class_name": "Zeros", "config": {}}, "use_bias": true, "activity_regularizer": null, "kernel_size": [3, 1]}, "inbound_nodes": [[["block8/branch_1_2/relu/8", 0, 0, {}]]], "name": "block8/branch_1_3/8"}, {"class_name": "BatchNormalization", "config": {"beta_constraint": null, "gamma_initializer": {"class_name": "Ones", "config": {}}, "moving_mean_initializer": {"class_name": "Zeros", "config": {}}, "name": "block8/bn_branch_0/8", "epsilon": 0.001, "trainable": true, "moving_variance_initializer": {"class_name": "Ones", "config": {}}, "beta_initializer": {"class_name": "Zeros", "config": {}}, "scale": true, "axis": 3, "gamma_constraint": null, "gamma_regularizer": null, "beta_regularizer": null, "momentum": 0.99, "center": true}, "inbound_nodes": [[["block8/branch_0/8", 0, 0, {}]]], "name": "block8/bn_branch_0/8"}, {"class_name": "BatchNormalization", "config": {"beta_constraint": null, "gamma_initializer": {"class_name": "Ones", "config": {}}, "moving_mean_initializer": {"class_name": "Zeros", "config": {}}, "name": "block8/bn_branch_1_3/8", "epsilon": 0.001, "trainable": true, "moving_variance_initializer": {"class_name": "Ones", "config": {}}, "beta_initializer": {"class_name": "Zeros", "config": {}}, "scale": true, "axis": 3, "gamma_constraint": null, "gamma_regularizer": null, "beta_regularizer": null, "momentum": 0.99, "center": true}, "inbound_nodes": [[["block8/branch_1_3/8", 0, 0, {}]]], "name": "block8/bn_branch_1_3/8"}, {"class_name": "Activation", "config": {"activation": "relu", "trainable": true, "name": "block8/branch_0/relu/8"}, "inbound_nodes": [[["block8/bn_branch_0/8", 0, 0, {}]]], "name": "block8/branch_0/relu/8"}, {"class_name": "Activation", "config": {"activation": "relu", "trainable": true, "name": "block8/branch_1_3/relu/8"}, "inbound_nodes": [[["block8/bn_branch_1_3/8", 0, 0, {}]]], "name": "block8/branch_1_3/relu/8"}, {"class_name": "Concatenate", "config": {"trainable": true, "name": "block8_8_mixed", "axis": 3}, "inbound_nodes": [[["block8/branch_0/relu/8", 0, 0, {}], ["block8/branch_1_3/relu/8", 0, 0, {}]]], "name": "block8_8_mixed"}, {"class_name": "Conv2D", "config": {"kernel_constraint": null, "kernel_initializer": {"class_name": "VarianceScaling", "config": {"distribution": "uniform", "scale": 1.0, "seed": null, "mode": "fan_avg"}}, "name": "block8_8_conv", "bias_regularizer": null, "bias_constraint": null, "activation": "linear", "trainable": true, "data_format": "channels_last", "padding": "same", "strides": [1, 1], "dilation_rate": [1, 1], "kernel_regularizer": null, "filters": 2080, "bias_initializer": {"class_name": "Zeros", "config": {}}, "use_bias": true, "activity_regularizer": null, "kernel_size": [1, 1]}, "inbound_nodes": [[["block8_8_mixed", 0, 0, {}]]], "name": "block8_8_conv"}, {"class_name": "Lambda", "config": {"function": ["c\u0002\u0000\u0000\u0000\u0002\u0000\u0000\u0000\u0003\u0000\u0000\u0000S\u0000\u0000\u0000s\u0014\u0000\u0000\u0000|\u0000\u0000d\u0001\u0000\u0019|\u0000\u0000d\u0002\u0000\u0019|\u0001\u0000\u0014\u0017S(\u0003\u0000\u0000\u0000Ni\u0000\u0000\u0000\u0000i\u0001\u0000\u0000\u0000(\u0000\u0000\u0000\u0000(\u0002\u0000\u0000\u0000t\u0006\u0000\u0000\u0000inputst\u0005\u0000\u0000\u0000scale(\u0000\u0000\u0000\u0000(\u0000\u0000\u0000\u0000s0\u0000\u0000\u0000/ai/sources/keras.ins.facenet/inceptionresnet.pyt\b\u0000\u0000\u0000<lambda>N\u0000\u0000\u0000t\u0000\u0000\u0000\u0000", null, null], "name": "block8_8", "trainable": true, "function_type": "lambda", "arguments": {"scale": 0.2}, "output_shape": [8, 8, 2080], "output_shape_type": "raw"}, "inbound_nodes": [[["block8_7_ac", 0, 0, {}], ["block8_8_conv", 0, 0, {}]]], "name": "block8_8"}, {"class_name": "Activation", "config": {"activation": "relu", "trainable": true, "name": "block8_8_ac"}, "inbound_nodes": [[["block8_8", 0, 0, {}]]], "name": "block8_8_ac"}, {"class_name": "Conv2D", "config": {"kernel_constraint": null, "kernel_initializer": {"class_name": "VarianceScaling", "config": {"distribution": "uniform", "scale": 1.0, "seed": null, "mode": "fan_avg"}}, "name": "block8/branch_1_1/9", "bias_regularizer": null, "bias_constraint": null, "activation": "linear", "trainable": true, "data_format": "channels_last", "padding": "same", "strides": [1, 1], "dilation_rate": [1, 1], "kernel_regularizer": null, "filters": 192, "bias_initializer": {"class_name": "Zeros", "config": {}}, "use_bias": true, "activity_regularizer": null, "kernel_size": [1, 1]}, "inbound_nodes": [[["block8_8_ac", 0, 0, {}]]], "name": "block8/branch_1_1/9"}, {"class_name": "BatchNormalization", "config": {"beta_constraint": null, "gamma_initializer": {"class_name": "Ones", "config": {}}, "moving_mean_initializer": {"class_name": "Zeros", "config": {}}, "name": "block8/bn_branch_1_1/9", "epsilon": 0.001, "trainable": true, "moving_variance_initializer": {"class_name": "Ones", "config": {}}, "beta_initializer": {"class_name": "Zeros", "config": {}}, "scale": true, "axis": 3, "gamma_constraint": null, "gamma_regularizer": null, "beta_regularizer": null, "momentum": 0.99, "center": true}, "inbound_nodes": [[["block8/branch_1_1/9", 0, 0, {}]]], "name": "block8/bn_branch_1_1/9"}, {"class_name": "Activation", "config": {"activation": "relu", "trainable": true, "name": "block8/branch_1_1/relu/9"}, "inbound_nodes": [[["block8/bn_branch_1_1/9", 0, 0, {}]]], "name": "block8/branch_1_1/relu/9"}, {"class_name": "Conv2D", "config": {"kernel_constraint": null, "kernel_initializer": {"class_name": "VarianceScaling", "config": {"distribution": "uniform", "scale": 1.0, "seed": null, "mode": "fan_avg"}}, "name": "block8/branch_1_2/9", "bias_regularizer": null, "bias_constraint": null, "activation": "linear", "trainable": true, "data_format": "channels_last", "padding": "same", "strides": [1, 1], "dilation_rate": [1, 1], "kernel_regularizer": null, "filters": 224, "bias_initializer": {"class_name": "Zeros", "config": {}}, "use_bias": true, "activity_regularizer": null, "kernel_size": [1, 3]}, "inbound_nodes": [[["block8/branch_1_1/relu/9", 0, 0, {}]]], "name": "block8/branch_1_2/9"}, {"class_name": "BatchNormalization", "config": {"beta_constraint": null, "gamma_initializer": {"class_name": "Ones", "config": {}}, "moving_mean_initializer": {"class_name": "Zeros", "config": {}}, "name": "block8/bn_branch_1_2/9", "epsilon": 0.001, "trainable": true, "moving_variance_initializer": {"class_name": "Ones", "config": {}}, "beta_initializer": {"class_name": "Zeros", "config": {}}, "scale": true, "axis": 3, "gamma_constraint": null, "gamma_regularizer": null, "beta_regularizer": null, "momentum": 0.99, "center": true}, "inbound_nodes": [[["block8/branch_1_2/9", 0, 0, {}]]], "name": "block8/bn_branch_1_2/9"}, {"class_name": "Activation", "config": {"activation": "relu", "trainable": true, "name": "block8/branch_1_2/relu/9"}, "inbound_nodes": [[["block8/bn_branch_1_2/9", 0, 0, {}]]], "name": "block8/branch_1_2/relu/9"}, {"class_name": "Conv2D", "config": {"kernel_constraint": null, "kernel_initializer": {"class_name": "VarianceScaling", "config": {"distribution": "uniform", "scale": 1.0, "seed": null, "mode": "fan_avg"}}, "name": "block8/branch_0/9", "bias_regularizer": null, "bias_constraint": null, "activation": "linear", "trainable": true, "data_format": "channels_last", "padding": "same", "strides": [1, 1], "dilation_rate": [1, 1], "kernel_regularizer": null, "filters": 192, "bias_initializer": {"class_name": "Zeros", "config": {}}, "use_bias": true, "activity_regularizer": null, "kernel_size": [1, 1]}, "inbound_nodes": [[["block8_8_ac", 0, 0, {}]]], "name": "block8/branch_0/9"}, {"class_name": "Conv2D", "config": {"kernel_constraint": null, "kernel_initializer": {"class_name": "VarianceScaling", "config": {"distribution": "uniform", "scale": 1.0, "seed": null, "mode": "fan_avg"}}, "name": "block8/branch_1_3/9", "bias_regularizer": null, "bias_constraint": null, "activation": "linear", "trainable": true, "data_format": "channels_last", "padding": "same", "strides": [1, 1], "dilation_rate": [1, 1], "kernel_regularizer": null, "filters": 256, "bias_initializer": {"class_name": "Zeros", "config": {}}, "use_bias": true, "activity_regularizer": null, "kernel_size": [3, 1]}, "inbound_nodes": [[["block8/branch_1_2/relu/9", 0, 0, {}]]], "name": "block8/branch_1_3/9"}, {"class_name": "BatchNormalization", "config": {"beta_constraint": null, "gamma_initializer": {"class_name": "Ones", "config": {}}, "moving_mean_initializer": {"class_name": "Zeros", "config": {}}, "name": "block8/bn_branch_0/9", "epsilon": 0.001, "trainable": true, "moving_variance_initializer": {"class_name": "Ones", "config": {}}, "beta_initializer": {"class_name": "Zeros", "config": {}}, "scale": true, "axis": 3, "gamma_constraint": null, "gamma_regularizer": null, "beta_regularizer": null, "momentum": 0.99, "center": true}, "inbound_nodes": [[["block8/branch_0/9", 0, 0, {}]]], "name": "block8/bn_branch_0/9"}, {"class_name": "BatchNormalization", "config": {"beta_constraint": null, "gamma_initializer": {"class_name": "Ones", "config": {}}, "moving_mean_initializer": {"class_name": "Zeros", "config": {}}, "name": "block8/bn_branch_1_3/9", "epsilon": 0.001, "trainable": true, "moving_variance_initializer": {"class_name": "Ones", "config": {}}, "beta_initializer": {"class_name": "Zeros", "config": {}}, "scale": true, "axis": 3, "gamma_constraint": null, "gamma_regularizer": null, "beta_regularizer": null, "momentum": 0.99, "center": true}, "inbound_nodes": [[["block8/branch_1_3/9", 0, 0, {}]]], "name": "block8/bn_branch_1_3/9"}, {"class_name": "Activation", "config": {"activation": "relu", "trainable": true, "name": "block8/branch_0/relu/9"}, "inbound_nodes": [[["block8/bn_branch_0/9", 0, 0, {}]]], "name": "block8/branch_0/relu/9"}, {"class_name": "Activation", "config": {"activation": "relu", "trainable": true, "name": "block8/branch_1_3/relu/9"}, "inbound_nodes": [[["block8/bn_branch_1_3/9", 0, 0, {}]]], "name": "block8/branch_1_3/relu/9"}, {"class_name": "Concatenate", "config": {"trainable": true, "name": "block8_9_mixed", "axis": 3}, "inbound_nodes": [[["block8/branch_0/relu/9", 0, 0, {}], ["block8/branch_1_3/relu/9", 0, 0, {}]]], "name": "block8_9_mixed"}, {"class_name": "Conv2D", "config": {"kernel_constraint": null, "kernel_initializer": {"class_name": "VarianceScaling", "config": {"distribution": "uniform", "scale": 1.0, "seed": null, "mode": "fan_avg"}}, "name": "block8_9_conv", "bias_regularizer": null, "bias_constraint": null, "activation": "linear", "trainable": true, "data_format": "channels_last", "padding": "same", "strides": [1, 1], "dilation_rate": [1, 1], "kernel_regularizer": null, "filters": 2080, "bias_initializer": {"class_name": "Zeros", "config": {}}, "use_bias": true, "activity_regularizer": null, "kernel_size": [1, 1]}, "inbound_nodes": [[["block8_9_mixed", 0, 0, {}]]], "name": "block8_9_conv"}, {"class_name": "Lambda", "config": {"function": ["c\u0002\u0000\u0000\u0000\u0002\u0000\u0000\u0000\u0003\u0000\u0000\u0000S\u0000\u0000\u0000s\u0014\u0000\u0000\u0000|\u0000\u0000d\u0001\u0000\u0019|\u0000\u0000d\u0002\u0000\u0019|\u0001\u0000\u0014\u0017S(\u0003\u0000\u0000\u0000Ni\u0000\u0000\u0000\u0000i\u0001\u0000\u0000\u0000(\u0000\u0000\u0000\u0000(\u0002\u0000\u0000\u0000t\u0006\u0000\u0000\u0000inputst\u0005\u0000\u0000\u0000scale(\u0000\u0000\u0000\u0000(\u0000\u0000\u0000\u0000s0\u0000\u0000\u0000/ai/sources/keras.ins.facenet/inceptionresnet.pyt\b\u0000\u0000\u0000<lambda>N\u0000\u0000\u0000t\u0000\u0000\u0000\u0000", null, null], "name": "block8_9", "trainable": true, "function_type": "lambda", "arguments": {"scale": 0.2}, "output_shape": [8, 8, 2080], "output_shape_type": "raw"}, "inbound_nodes": [[["block8_8_ac", 0, 0, {}], ["block8_9_conv", 0, 0, {}]]], "name": "block8_9"}, {"class_name": "Activation", "config": {"activation": "relu", "trainable": true, "name": "block8_9_ac"}, "inbound_nodes": [[["block8_9", 0, 0, {}]]], "name": "block8_9_ac"}, {"class_name": "Conv2D", "config": {"kernel_constraint": null, "kernel_initializer": {"class_name": "VarianceScaling", "config": {"distribution": "uniform", "scale": 1.0, "seed": null, "mode": "fan_avg"}}, "name": "block8/branch_1_1/10", "bias_regularizer": null, "bias_constraint": null, "activation": "linear", "trainable": true, "data_format": "channels_last", "padding": "same", "strides": [1, 1], "dilation_rate": [1, 1], "kernel_regularizer": null, "filters": 192, "bias_initializer": {"class_name": "Zeros", "config": {}}, "use_bias": true, "activity_regularizer": null, "kernel_size": [1, 1]}, "inbound_nodes": [[["block8_9_ac", 0, 0, {}]]], "name": "block8/branch_1_1/10"}, {"class_name": "BatchNormalization", "config": {"beta_constraint": null, "gamma_initializer": {"class_name": "Ones", "config": {}}, "moving_mean_initializer": {"class_name": "Zeros", "config": {}}, "name": "block8/bn_branch_1_1/10", "epsilon": 0.001, "trainable": true, "moving_variance_initializer": {"class_name": "Ones", "config": {}}, "beta_initializer": {"class_name": "Zeros", "config": {}}, "scale": true, "axis": 3, "gamma_constraint": null, "gamma_regularizer": null, "beta_regularizer": null, "momentum": 0.99, "center": true}, "inbound_nodes": [[["block8/branch_1_1/10", 0, 0, {}]]], "name": "block8/bn_branch_1_1/10"}, {"class_name": "Activation", "config": {"activation": "relu", "trainable": true, "name": "block8/branch_1_1/relu/10"}, "inbound_nodes": [[["block8/bn_branch_1_1/10", 0, 0, {}]]], "name": "block8/branch_1_1/relu/10"}, {"class_name": "Conv2D", "config": {"kernel_constraint": null, "kernel_initializer": {"class_name": "VarianceScaling", "config": {"distribution": "uniform", "scale": 1.0, "seed": null, "mode": "fan_avg"}}, "name": "block8/branch_1_2/10", "bias_regularizer": null, "bias_constraint": null, "activation": "linear", "trainable": true, "data_format": "channels_last", "padding": "same", "strides": [1, 1], "dilation_rate": [1, 1], "kernel_regularizer": null, "filters": 224, "bias_initializer": {"class_name": "Zeros", "config": {}}, "use_bias": true, "activity_regularizer": null, "kernel_size": [1, 3]}, "inbound_nodes": [[["block8/branch_1_1/relu/10", 0, 0, {}]]], "name": "block8/branch_1_2/10"}, {"class_name": "BatchNormalization", "config": {"beta_constraint": null, "gamma_initializer": {"class_name": "Ones", "config": {}}, "moving_mean_initializer": {"class_name": "Zeros", "config": {}}, "name": "block8/bn_branch_1_2/10", "epsilon": 0.001, "trainable": true, "moving_variance_initializer": {"class_name": "Ones", "config": {}}, "beta_initializer": {"class_name": "Zeros", "config": {}}, "scale": true, "axis": 3, "gamma_constraint": null, "gamma_regularizer": null, "beta_regularizer": null, "momentum": 0.99, "center": true}, "inbound_nodes": [[["block8/branch_1_2/10", 0, 0, {}]]], "name": "block8/bn_branch_1_2/10"}, {"class_name": "Activation", "config": {"activation": "relu", "trainable": true, "name": "block8/branch_1_2/relu/10"}, "inbound_nodes": [[["block8/bn_branch_1_2/10", 0, 0, {}]]], "name": "block8/branch_1_2/relu/10"}, {"class_name": "Conv2D", "config": {"kernel_constraint": null, "kernel_initializer": {"class_name": "VarianceScaling", "config": {"distribution": "uniform", "scale": 1.0, "seed": null, "mode": "fan_avg"}}, "name": "block8/branch_0/10", "bias_regularizer": null, "bias_constraint": null, "activation": "linear", "trainable": true, "data_format": "channels_last", "padding": "same", "strides": [1, 1], "dilation_rate": [1, 1], "kernel_regularizer": null, "filters": 192, "bias_initializer": {"class_name": "Zeros", "config": {}}, "use_bias": true, "activity_regularizer": null, "kernel_size": [1, 1]}, "inbound_nodes": [[["block8_9_ac", 0, 0, {}]]], "name": "block8/branch_0/10"}, {"class_name": "Conv2D", "config": {"kernel_constraint": null, "kernel_initializer": {"class_name": "VarianceScaling", "config": {"distribution": "uniform", "scale": 1.0, "seed": null, "mode": "fan_avg"}}, "name": "block8/branch_1_3/10", "bias_regularizer": null, "bias_constraint": null, "activation": "linear", "trainable": true, "data_format": "channels_last", "padding": "same", "strides": [1, 1], "dilation_rate": [1, 1], "kernel_regularizer": null, "filters": 256, "bias_initializer": {"class_name": "Zeros", "config": {}}, "use_bias": true, "activity_regularizer": null, "kernel_size": [3, 1]}, "inbound_nodes": [[["block8/branch_1_2/relu/10", 0, 0, {}]]], "name": "block8/branch_1_3/10"}, {"class_name": "BatchNormalization", "config": {"beta_constraint": null, "gamma_initializer": {"class_name": "Ones", "config": {}}, "moving_mean_initializer": {"class_name": "Zeros", "config": {}}, "name": "block8/bn_branch_0/10", "epsilon": 0.001, "trainable": true, "moving_variance_initializer": {"class_name": "Ones", "config": {}}, "beta_initializer": {"class_name": "Zeros", "config": {}}, "scale": true, "axis": 3, "gamma_constraint": null, "gamma_regularizer": null, "beta_regularizer": null, "momentum": 0.99, "center": true}, "inbound_nodes": [[["block8/branch_0/10", 0, 0, {}]]], "name": "block8/bn_branch_0/10"}, {"class_name": "BatchNormalization", "config": {"beta_constraint": null, "gamma_initializer": {"class_name": "Ones", "config": {}}, "moving_mean_initializer": {"class_name": "Zeros", "config": {}}, "name": "block8/bn_branch_1_3/10", "epsilon": 0.001, "trainable": true, "moving_variance_initializer": {"class_name": "Ones", "config": {}}, "beta_initializer": {"class_name": "Zeros", "config": {}}, "scale": true, "axis": 3, "gamma_constraint": null, "gamma_regularizer": null, "beta_regularizer": null, "momentum": 0.99, "center": true}, "inbound_nodes": [[["block8/branch_1_3/10", 0, 0, {}]]], "name": "block8/bn_branch_1_3/10"}, {"class_name": "Activation", "config": {"activation": "relu", "trainable": true, "name": "block8/branch_0/relu/10"}, "inbound_nodes": [[["block8/bn_branch_0/10", 0, 0, {}]]], "name": "block8/branch_0/relu/10"}, {"class_name": "Activation", "config": {"activation": "relu", "trainable": true, "name": "block8/branch_1_3/relu/10"}, "inbound_nodes": [[["block8/bn_branch_1_3/10", 0, 0, {}]]], "name": "block8/branch_1_3/relu/10"}, {"class_name": "Concatenate", "config": {"trainable": true, "name": "block8_10_mixed", "axis": 3}, "inbound_nodes": [[["block8/branch_0/relu/10", 0, 0, {}], ["block8/branch_1_3/relu/10", 0, 0, {}]]], "name": "block8_10_mixed"}, {"class_name": "Conv2D", "config": {"kernel_constraint": null, "kernel_initializer": {"class_name": "VarianceScaling", "config": {"distribution": "uniform", "scale": 1.0, "seed": null, "mode": "fan_avg"}}, "name": "block8_10_conv", "bias_regularizer": null, "bias_constraint": null, "activation": "linear", "trainable": true, "data_format": "channels_last", "padding": "same", "strides": [1, 1], "dilation_rate": [1, 1], "kernel_regularizer": null, "filters": 2080, "bias_initializer": {"class_name": "Zeros", "config": {}}, "use_bias": true, "activity_regularizer": null, "kernel_size": [1, 1]}, "inbound_nodes": [[["block8_10_mixed", 0, 0, {}]]], "name": "block8_10_conv"}, {"class_name": "Lambda", "config": {"function": ["c\u0002\u0000\u0000\u0000\u0002\u0000\u0000\u0000\u0003\u0000\u0000\u0000S\u0000\u0000\u0000s\u0014\u0000\u0000\u0000|\u0000\u0000d\u0001\u0000\u0019|\u0000\u0000d\u0002\u0000\u0019|\u0001\u0000\u0014\u0017S(\u0003\u0000\u0000\u0000Ni\u0000\u0000\u0000\u0000i\u0001\u0000\u0000\u0000(\u0000\u0000\u0000\u0000(\u0002\u0000\u0000\u0000t\u0006\u0000\u0000\u0000inputst\u0005\u0000\u0000\u0000scale(\u0000\u0000\u0000\u0000(\u0000\u0000\u0000\u0000s0\u0000\u0000\u0000/ai/sources/keras.ins.facenet/inceptionresnet.pyt\b\u0000\u0000\u0000<lambda>N\u0000\u0000\u0000t\u0000\u0000\u0000\u0000", null, null], "name": "block8_10", "trainable": true, "function_type": "lambda", "arguments": {"scale": 1.0}, "output_shape": [8, 8, 2080], "output_shape_type": "raw"}, "inbound_nodes": [[["block8_9_ac", 0, 0, {}], ["block8_10_conv", 0, 0, {}]]], "name": "block8_10"}, {"class_name": "Conv2D", "config": {"kernel_constraint": null, "kernel_initializer": {"class_name": "VarianceScaling", "config": {"distribution": "uniform", "scale": 1.0, "seed": null, "mode": "fan_avg"}}, "name": "conv_7b", "bias_regularizer": null, "bias_constraint": null, "activation": "linear", "trainable": true, "data_format": "channels_last", "padding": "same", "strides": [1, 1], "dilation_rate": [1, 1], "kernel_regularizer": null, "filters": 1536, "bias_initializer": {"class_name": "Zeros", "config": {}}, "use_bias": true, "activity_regularizer": null, "kernel_size": [1, 1]}, "inbound_nodes": [[["block8_10", 0, 0, {}]]], "name": "conv_7b"}, {"class_name": "BatchNormalization", "config": {"beta_constraint": null, "gamma_initializer": {"class_name": "Ones", "config": {}}, "moving_mean_initializer": {"class_name": "Zeros", "config": {}}, "name": "bn7b", "epsilon": 0.001, "trainable": true, "moving_variance_initializer": {"class_name": "Ones", "config": {}}, "beta_initializer": {"class_name": "Zeros", "config": {}}, "scale": true, "axis": 3, "gamma_constraint": null, "gamma_regularizer": null, "beta_regularizer": null, "momentum": 0.99, "center": true}, "inbound_nodes": [[["conv_7b", 0, 0, {}]]], "name": "bn7b"}, {"class_name": "Activation", "config": {"activation": "relu", "trainable": true, "name": "arelu24"}, "inbound_nodes": [[["bn7b", 0, 0, {}]]], "name": "arelu24"}, {"class_name": "AveragePooling2D", "config": {"name": "ap3", "trainable": true, "data_format": "channels_last", "pool_size": [8, 8], "padding": "valid", "strides": [1, 1]}, "inbound_nodes": [[["arelu24", 0, 0, {}]]], "name": "ap3"}, {"class_name": "Flatten", "config": {"trainable": true, "name": "flatten_1"}, "inbound_nodes": [[["ap3", 0, 0, {}]]], "name": "flatten_1"}, {"class_name": "Dropout", "config": {"rate": 1.0, "trainable": true, "name": "dropout_1"}, "inbound_nodes": [[["flatten_1", 0, 0, {}]]], "name": "dropout_1"}, {"class_name": "Dense", "config": {"kernel_initializer": {"class_name": "VarianceScaling", "config": {"distribution": "uniform", "scale": 1.0, "seed": null, "mode": "fan_avg"}}, "name": "embeddings", "kernel_constraint": null, "bias_regularizer": null, "bias_constraint": null, "activation": "linear", "trainable": true, "kernel_regularizer": null, "bias_initializer": {"class_name": "Zeros", "config": {}}, "units": 128, "use_bias": true, "activity_regularizer": null}, "inbound_nodes": [[["dropout_1", 0, 0, {}]]], "name": "embeddings"}, {"class_name": "Lambda", "config": {"function": ["c\u0001\u0000\u0000\u0000\u0001\u0000\u0000\u0000\u0004\u0000\u0000\u0000S\u0000\u0000\u0000s\u0013\u0000\u0000\u0000t\u0000\u0000j\u0001\u0000|\u0000\u0000d\u0001\u0000d\u0002\u0000\u0083\u0001\u0001S(\u0003\u0000\u0000\u0000Nt\u0004\u0000\u0000\u0000axisi\u0001\u0000\u0000\u0000(\u0002\u0000\u0000\u0000t\u0001\u0000\u0000\u0000Kt\f\u0000\u0000\u0000l2_normalize(\u0001\u0000\u0000\u0000t\u0001\u0000\u0000\u0000x(\u0000\u0000\u0000\u0000(\u0000\u0000\u0000\u0000s0\u0000\u0000\u0000/ai/sources/keras.ins.facenet/inceptionresnet.pyt\b\u0000\u0000\u0000<lambda>\u00dc\u0000\u0000\u0000t\u0000\u0000\u0000\u0000", null, null], "name": "lambda_1", "trainable": true, "function_type": "lambda", "arguments": {}, "output_shape": null, "output_shape_type": "raw"}, "inbound_nodes": [[["embeddings", 0, 0, {}]]], "name": "lambda_1"}], "input_layers": [["input_1", 0, 0]], "output_layers": [["lambda_1", 0, 0]], "name": "model_1"}, "backend": "tensorflow"}